lecture4/RNNs/model_storage/ch7/model2_conditioned_surname_generation/model.pth (torch, 52751 bytes, 8 tensors)

char_emb.weight f4 [88, 32]
0.0 0.0 0.0 0.0 0.0 0.0 0.0 0.0
0.0 0.0 0.0 0.0 0.0 0.0 0.0 0.0
0.0 0.0 0.0 0.0 0.0 0.0 0.0 0.0
0.0 0.0 0.0 0.0 0.0 0.0 0.0 0.0
-0.6630959 -0.25127524 1.0101448 0.12154675 0.15839934 1.1340188 -1.1538976 -0.29839683
-0.50753653 -0.92392117 0.5467061 -1.4947776 -1.2057148 0.57181984 -0.5973545 -0.6936757
1.6455388 -0.8029931 1.3514109 -0.27591935 -1.5108346 2.104773 2.762959 -1.7465292
1.4515902 -1.5102831 0.82115376 -0.21152724 0.7788983 1.5332688 1.6097364 -0.40322813
-0.9168532 0.6303959 0.06312443 -0.13684279 -0.68919545 0.547626 -0.10190859 -1.4547222
2.320411 -0.6257127 0.0014632123 0.9167766 -1.5083221 1.2102612 0.14208727 0.5161948
2.736149 -1.3802949 1.3383602 0.6837397 -1.8951404 -1.4417152 0.8742186 -0.04616025
0.49835953 -0.5911287 0.7324642 -0.69255644 -0.36160493 -0.4163195 -1.3963828 -0.7879313
-1.666937 -1.3651438 -0.1655241 0.96225154 0.03154889 -0.7419016 -0.29778957 0.017165666
-0.1772239 -0.13342951 0.29395735 1.3849541 0.12091276 2.5417871 -0.64046 -1.9740105
-0.32956925 0.007958851 0.9262348 -1.8845556 0.1669616 0.45862234 -1.7662065 0.5859862
1.7510315 0.28072214 0.31096315 -0.65375805 -0.65762633 0.31844944 -0.5495865 -1.4649245
-2.4760046 2.3780408 1.024993 -0.18859437 0.8575347 1.2442954 -0.31569713 -1.1251832
-0.0006210008 -0.13564086 0.9069124 0.54753226 0.28172672 -0.84596974 0.43623307 0.61753917
2.1523185 1.2428417 -1.5363469 -0.3924486 -0.19079325 -0.6234676 -0.9652821 0.9529985
-1.2133522 0.651554 0.9942763 -0.1689451 -1.2675565 -0.43807253 1.7181407 -0.34893584
-1.260889 0.45037162 -0.21745408 2.3618329 -3.1731033 0.062935784 -0.7985642 -0.503561
0.2979476 2.1453795 -0.47933152 -0.16731367 -1.2237802 -0.30625919 -1.990864 -1.5108396
-0.54164124 -0.96434027 0.110543475 0.27337682 0.41454583 0.60278326 -1.789684 0.9353277
1.1609616 1.2164922 0.6349632 -1.4678615 -0.71439624 2.243966 0.50284225 1.5322704
0.17000395 -0.46027213 1.80321 1.5118755 0.91121024 -0.54143554 -0.44382185 0.87591815
0.21014306 -1.8969079 1.2601169 0.3195378 -1.219184 -1.01994 -0.17600645 0.29373845
0.33382672 -0.48470584 -0.32527655 -0.5277014 0.86586946 0.9317359 1.2190007 0.7200452
0.16507182 1.068109 -0.45568144 -0.6151149 -0.22528152 0.11513088 -0.5908235 -0.17752011
-0.82950807 0.040059038 -0.12527925 -0.38983288 -0.36923963 0.37520877 -0.13829716 -0.7893567
0.9802787 -1.5490464 0.92509884 -2.1410239 -0.9876259 -0.1219027 -0.6185473 -0.6656245
1.3653545 -0.13668497 -0.865181 -1.0161295 0.2012881 -0.46721414 -0.19348297 -1.2515136
-0.56290793 0.2553108 -1.0543311 -1.238754 1.0613827 -1.7426016 -0.44931173 1.4424894
00000000: 0000 0000 0000 0000 0000 0000 0000 0000
00000010: 0000 0000 0000 0000 0000 0000 0000 0000
00000020: 0000 0000 0000 0000 0000 0000 0000 0000
00000030: 0000 0000 0000 0000 0000 0000 0000 0000
00000040: 0000 0000 0000 0000 0000 0000 0000 0000
00000050: 0000 0000 0000 0000 0000 0000 0000 0000
00000060: 0000 0000 0000 0000 0000 0000 0000 0000
00000070: 0000 0000 0000 0000 0000 0000 0000 0000
00000080: a7c0 29bf 26a7 80be 6d4c 813f 81ed f83d
00000090: 7033 223e 8727 913f ebb2 93bf 78c7 98be
000000a0: eaed 01bf 1986 6cbf eef4 0b3f df54 bfbf
000000b0: dd54 9abf c962 123f 39ec 18bf bb94 31bf
000000c0: 04a1 d23f f590 4dbf 08fb ac3f 4d45 8dbe
000000d0: 0763 c1bf 9ab4 0640 52d4 3040 458e dfbf
000000e0: b5cd b93f f550 c1bf 2237 523f 999a 58be
000000f0: e165 473f 2742 c43f d80b ce3f eb73 cebe
00000100: e4b6 6abf a061 213f 6247 813d 8420 0cbe
00000110: 1d6f 30bf 3831 0c3f 73b5 d0bd 5634 babf
00000120: 9d81 1440 b52e 20bf 42c9 bf3a dfb1 6a3f
00000130: b310 c1bf d7e9 9a3f 537f 113e 5825 043f
00000140: 111d 2f40 81ad b0bf 634f ab3f 9109 2f3f
00000150: f693 f2bf 208a b8bf cacc 5f3f 8812 3dbd
00000160: fb28 ff3e 3654 17bf c682 3b3f 614b 31bf
00000170: 4824 b9be d427 d5be acbc b2bf deb5 49bf
00000180: 315e d5bf 08bd aebf 267f 29be 1e56 763f
00000190: 6939 013d 43ed 3dbf e077 98be 039f 8c3c
000001a0: 2f7a 35be bfa1 08be 9481 963e 2d46 b13f
000001b0: 1ca1 f73d a4ac 2240 30f5 23bf 60ac fcbf
000001c0: 4dbd a8be d765 023c b91d 6d3f 1e39 f1bf
000001d0: fbf7 2a3e 8cd0 ea3e 0e13 e2bf 3103 163f
000001e0: cd21 e03f d0ba 8f3e 9036 9f3e b05c 27bf
000001f0: 335a 28bf ce0b a33e b3b1 0cbf a582 bbbf
00000200: dc76 1ec0 d231 1840 f832 833f e21e 41be
00000210: 6587 5b3f 1245 9f3f 0ea3 a1be 0106 90bf
00000220: a9ca 22ba 70e5 0abe 692b 683f 132b 0c3f
00000230: 7c3e 903e 7991 58bf f159 df3e 0c17 1e3f
00000240: 96bf 0940 7015 9f3f 04a7 c4bf 06ef c8be
00000250: 4e5f 43be 939b 1fbf ba1c 77bf b6f7 733f
00000260: 204f 9bbf 3ecc 263f e488 7e3f f2ff 2cbe
00000270: 4b3f a2bf 0b4b e0be 09ec db3f b8a7 b2be
00000280: d064 a1bf 1c97 e63e 48ac 5ebe 4528 1740
00000290: 2014 4bc0 7ae4 803d b46e 4cbf 60e9 00bf
000002a0: 968c 983e e64d 0940 f16a f5be 4654 2bbe
000002b0: d4a4 9cbf 01ce 9cbe a2d4 febf 3163 c1bf
000002c0: 00a9 0abf 01df 76bf 9e64 e23d 0cf8 8b3e
000002d0: 5a3f d43e 0150 1a3f 5e14 e5bf a371 6f3f
000002e0: 649a 943f 04b6 9b3f f38c 223f e3e2 bbbf
000002f0: ace2 36bf 249d 0f40 45ba 003f 7021 c43f
00000300: 8415 2e3e caa8 ebbe 96cf e63f 2385 c13f
00000310: 1345 693f 859b 0abf 9e3c e3be 2c3c 603f
00000320: be2f 573e e1cd f2bf 834b a13f 759a a33e
00000330: 390e 9cbf 658d 82bf 093b 34be e364 963e
00000340: 56eb aa3e 5d2b f8be a68a a6be 7017 07bf
00000350: 9fa9 5d3f 3e86 6e3f 3708 9c3f e254 383f
00000360: 9608 293e ccb7 883f 144f e9be 2c78 1dbf
00000370: 33b0 66be bdc9 eb3d 3540 17bf d5c7 35be
00000380: a45a 54bf f214 243d 3449 00be 2d98 c7be
00000390: fa0c bdbe 5d1b c03e c59d 0dbe 4813 4abf
000003a0: 8bf3 7a3f 2747 c6bf 47d3 6c3f 8906 09c0
000003b0: 0dd5 7cbf 1fa8 f9bd 1e59 1ebf 5e66 2abf
000003c0: f0c3 ae3f 25f7 0bbe 817c 5dbf 8810 82bf
000003d0: 781e 4e3e b136 efbe 6620 46be 9931 a0bf
000003e0: bc1a 10bf 19b8 823e 52f4 86bf 7e8f 9ebf
000003f0: 63db 873f 920d dfbf 300c e6be 7ea3 b83f

nation_emb.weight f4 [18, 32]
-0.81718296 -0.7715459 -0.24967685 0.6954707 -1.3538699 0.36351347 1.4912683 -0.533624
1.3577125 0.43690306 1.0415611 -0.3005587 0.1589532 -0.77835315 -0.021431 -0.81061494
1.7254976 2.5345895 1.8529049 -0.17655693 0.49542364 0.6960099 -2.2393656 -0.93204105
2.3902931 3.2851365 -0.74454486 -1.2673204 -2.6938837 1.0825568 -0.05027907 0.5514046
-0.9022214 2.1969688 -1.3339745 0.273439 0.7494046 1.5480064 -0.8732223 2.740828
-0.6197636 -0.8249087 -1.173482 -0.9492898 1.134504 1.8049916 -0.46141347 0.031959057
1.1782393 1.8623003 -0.46881634 0.04285228 0.69049567 0.4568746 1.4366732 -1.1823204
2.1817153 0.09750931 1.506859 0.13216119 -1.8871835 -0.8859011 2.1022635 0.75892085
-0.9240616 1.4601518 -1.6020724 -2.1133602 -0.71228147 0.8781626 2.3192184 0.64009273
-1.4555246 -0.4021317 1.6717349 1.5298012 -0.22791699 0.44881096 -0.29801294 -0.66831785
1.5638342 0.67218417 1.2394027 1.1990147 -1.8222508 -1.5097024 -0.7529516 -0.1619926
0.8877409 -0.9037833 -1.410683 1.0478053 -0.09911413 0.8281376 1.7765026 0.13915627
-1.7274451 -0.08406649 -0.040527914 1.7591423 0.17684709 -0.05754371 0.44754663 0.8578793
-0.33629873 -0.97846955 2.16027 1.7182981 1.415658 0.92902297 0.33474368 -0.3346154
-0.63548875 -0.510479 -0.42355877 -0.70726126 -0.16378362 -1.5779444 -2.166338 0.65472734
-0.58393323 0.020310223 -0.736459 0.169565 3.0314393 -0.5972051 0.18985581 1.4524435
0.87061095 1.1318569 0.97644633 0.5936502 1.2524222 0.551425 -0.30905843 -2.2805495
1.7133191 -1.2346494 1.0077609 2.2577567 0.36447495 -0.14672868 1.1602565 0.26135623
0.26858842 2.5972607 1.3229584 1.2458626 -0.12881278 0.6693119 -0.20327103 1.2869364
-0.7110742 1.1089352 -0.17883095 -0.89602983 1.0178533 0.8351697 0.660544 0.37482446
1.4404463 0.59828377 -0.3598973 -0.8841833 1.6845182 -0.73436004 -0.68476266 -2.9497228
-0.453029 0.024004716 0.38683447 0.0651356 -1.1719768 0.6178441 1.1703525 0.25560874
-3.0650933 2.2633216 -0.26675043 -0.43657902 -0.1390088 -0.9105934 -0.10937143 -1.294979
-0.15840238 0.43243256 -0.45575988 0.23832324 -1.3811063 -0.76085436 -1.3589504 1.3578073
0.80721563 -1.0804139 -1.4637177 -1.5126866 0.12972374 0.06935846 -1.0408772 -0.02865308
-0.4828259 1.7925608 0.5786789 -2.995643 0.5166816 1.2718816 -0.09739121 -2.1208947
0.42680037 -0.25216424 0.4300343 -0.3350028 1.3329252 0.66338146 -0.96946424 0.64119637
-0.94939184 -0.05913299 -0.71606374 -0.79800165 1.3775805 1.7367333 0.54828084 0.7718835
1.5251946 -0.76176214 -1.6033758 0.14707305 -0.6772734 0.57734466 0.8549765 2.8824377
-1.3974476 1.2368684 -0.90487754 -1.0579231 -0.64185464 -1.3153944 0.69808465 1.1721045
-0.07806748 -0.50367415 -1.1439158 -0.6180157 -0.36805782 0.6502053 1.5179417 2.187017
0.90659225 0.20608242 -1.0992287 1.2036257 1.1117187 0.9110595 0.7995931 0.11012713
00000000: e732 51bf 0884 45bf 4aab 7fbe 5e0a 323f
00000010: 9c4b adbf 701e ba3e e1e1 be3f 959b 08bf
00000020: 86c9 ad3f c2b1 df3e e051 853f d4e2 99be
00000030: a1c4 223e 2742 47bf 1190 afbc 7684 4fbf
00000040: 1bdd dc3f b736 2240 fd2b ed3f 57cb 34be
00000050: 2ba8 fd3e b42d 323f c451 0fc0 3e9a 6ebf
00000060: 90fa 1840 ad3f 5240 7e9a 3ebf 8e37 a2bf
00000070: 9768 2cc0 3991 8a3f 6df1 4dbd da28 0d3f
00000080: fbf7 66bf 239b 0c40 adbf aabf 3200 8c3e
00000090: fbd8 3f3f 1325 c63f 7f8b 5fbf ba69 2f40
000000a0: d4a8 1ebf 372d 53bf a834 96bf a804 73bf
000000b0: 6d37 913f f709 e73f 633e ecbe 80e7 023d
000000c0: 8cd0 963f db5f ee3f b208 f0be df85 2f3d
000000d0: 53c4 303f 78eb e93e e8e4 b73f 4656 97bf
000000e0: 39a1 0b40 f6b2 c73d c1e0 c03f 4355 073e
000000f0: 3b8f f1bf 6aca 62bf 7c8b 0640 a348 423f
00000100: 4d8f 6cbf 41e6 ba3f b510 cdbf 4b41 07c0
00000110: 1458 36bf 44cf 603f 136e 1440 1edd 233f
00000120: a14e babf 35e4 cdbe 69fb d53f 87d0 c33f
00000130: 1263 69be 8dca e53e 2795 98be e116 2bbf
00000140: b82b c83f 4314 2c3f bfa4 9e3f 5079 993f
00000150: 843f e9bf ee3d c1bf 70c1 40bf 63e1 25be
00000160: fd42 633f 585e 67bf 4391 b4bf 7c1e 863f
00000170: 59fc cabd d300 543f 7064 e33f fb7e 0e3e
00000180: ec1c ddbf 0d2b acbd 9900 26bd 932b e13f
00000190: 6717 353e f4b2 6bbd d524 e53e fa9d 5b3f
000001a0: 592f acbe fb7c 7abf dd41 0a40 31f1 db3f
000001b0: 4834 b53f 73d4 6d3f 8663 ab3e b652 abbe
000001c0: 64af 22bf c0ae 02bf b2dc d8be 130f 35bf
000001d0: e5b6 27be 15fa c9bf 48a5 0ac0 369c 273f
000001e0: a67c 15bf a061 a63c 9488 3cbf 73a2 2d3e
000001f0: 1a03 4240 6fe2 18bf 9069 423e abe9 b93f
00000200: 5ce0 5e3f b0e0 903f 63f8 793f 76f9 173f
00000210: 5f4f a03f 302a 0d3f e83c 9ebe 86f4 11c0
00000220: 0a4e db3f fe08 9ebf 4ffe 803f 167f 1040
00000230: 769c ba3e 0b40 16be 4983 943f 7cd0 853e
00000240: 6c84 893e 8539 2640 b356 a93f 6d78 9f3f
00000250: 7fe7 03be 0658 2b3f 4826 50be 55ba a43f
00000260: f508 36bf 97f1 8d3f 761f 37be 3662 65bf
00000270: 0449 823f aecd 553f 6919 293f fee8 bf3e
00000280: 8b60 b83f 2029 193f 7544 b8be d659 62bf
00000290: 4b9e d73f 05ff 3bbf 9b4c 2fbf 42c8 3cc0
000002a0: 6bf3 e7be 8aa5 c43c 2b0f c63e d065 853d
000002b0: 5603 96bf 082b 1e3f 1cce 953f 26df 823e
000002c0: 7d2a 44c0 43da 1040 8393 88be 4987 dfbe
000002d0: 5358 0ebe a61c 69bf 21fe dfbd dfc1 a5bf
000002e0: 3c34 22be cd67 dd3e 5c59 e9be 020b 743e
000002f0: 17c8 b0bf 5ac7 42bf 16f2 adbf a1cc ad3f
00000300: afa5 4e3f 014b 8abf 1a5b bbbf b79f c1bf
00000310: 4dd6 043e cf0b 8e3d 773b 85bf ddb9 eabc
00000320: f534 f7be a272 e53f 4d24 143f 9db8 3fc0
00000330: 3f45 043f 04cd a23f 0b75 c7bd bdbc 07c0
00000340: 9485 da3e ac1b 81be 752d dc3e 7d85 abbe
00000350: 4b9d aa3f 5ed3 293f cf2e 78bf 7225 243f
00000360: 580b 73bf 6f35 72bd f44f 37bf d649 4cbf
00000370: 8f54 b03f 474d de3f 225c 0c3f 289a 453f
00000380: 9439 c33f d802 43bf 6b3b cdbf 519a 163e
00000390: ca61 2dbf dccc 133f bddf 5a3f dc79 3840
000003a0: 90df b2bf b451 9e3f 0ea6 67bf 066a 87bf
000003b0: 9650 24bf d85e a8bf adb5 323f 8507 963f
000003c0: d8e1 9fbd caf0 00bf d56b 92bf 4736 1ebf
000003d0: 1372 bcbe db73 263f ea4b c23f 16f8 0b40
000003e0: 6e16 683f 4507 533e 87b3 8cbf 6810 9a3f
000003f0: cc4c 8e3f 323b 693f 22b2 4c3f 558a e13d

rnn.weight_ih_l0 f4 [96, 32]
-0.11446743 -0.16723225 0.0014478302 0.3375058 0.067875646 0.008371194 -0.18997104 0.041124936
0.019553257 -0.09758627 -0.018212626 -0.073893875 -0.18097568 -0.4833607 -0.10495422 -0.25592226
-0.10894842 0.17938258 -0.106536485 -0.0034981123 0.00046630244 0.085197955 -0.23949341 -0.13834909
0.070821464 -0.05798372 -0.16385715 -0.18849391 -0.27157187 0.13075756 0.16793273 0.07420205
0.081614666 0.29050285 0.19839832 0.18907945 -0.05354588 0.0701445 -0.07604843 0.30095387
-0.10937177 -0.08311763 -0.110172555 0.09851428 0.124108106 -0.06879027 -0.101901226 -0.4086595
-0.20708214 -0.13159595 -0.00046144894 -0.07668961 0.015499671 0.24792795 0.087314114 0.043887276
0.17153485 -0.06313996 -0.37134734 -0.30105704 -0.3371845 0.047392428 0.17070585 0.28913277
0.013292916 -0.1698079 0.106139354 0.34413096 0.20668267 0.2004495 -0.27995506 -0.00623933
-0.03546898 0.0531187 0.32609534 0.14478683 0.028749177 -0.055522252 0.15299265 -0.06558431
0.10374986 0.09805695 -0.012013441 0.09429332 0.2512128 0.39259723 -0.059017517 0.3936564
0.04438418 -0.016944028 0.30921438 -0.18874283 -0.304104 0.15157013 0.29907745 0.20045169
0.25021493 0.048269853 0.079031646 -0.02772806 0.3206326 0.059496798 0.06881587 0.21534598
0.002606314 -0.16927487 0.0023993936 -0.0021160527 -0.0688178 0.06333005 -0.06520157 -0.13028124
-0.20349419 0.29439694 0.031754322 -0.34073877 0.20386687 -0.028024547 -0.06256287 0.09678904
0.02625926 -0.03081918 0.040617015 -0.23880163 -0.18845075 -0.080493495 0.033044193 -0.021681461
-0.48419943 -0.01248528 0.056883153 -0.053668916 -0.0737747 -0.11967485 0.06538829 0.091263585
0.47561073 -0.09124933 -0.0044178707 -0.41271588 -0.118917614 0.064361 0.220846 -0.12748638
0.07576076 -0.23544906 -0.034051675 0.19225876 -0.3017784 -0.12469384 -0.16181867 -0.4739645
0.28906828 0.11727823 -0.0905774 -0.02058274 -0.23841542 -0.39772686 -0.042349495 -0.07034531
0.046673167 0.13278022 0.18050583 0.13346267 0.15552212 0.058308583 -0.29287162 0.30538112
0.071131565 -0.09618462 0.1521983 0.06016577 -0.08133096 -0.2860618 -0.17718229 0.19292057
-0.2542106 0.047238 -0.297193 0.07913195 0.054147635 0.18267474 0.06924999 0.11461001
-0.15847558 0.11274218 -0.14856642 -0.049011096 0.025169367 0.11293606 0.18130036 0.30137968
0.37802303 0.21661875 -0.098061495 0.12057485 0.15362881 0.13943534 -0.11419305 0.24077044
-0.21078485 -0.09506648 0.0041204197 -0.2067079 0.08302653 -0.09606763 -0.07926247 0.1849248
-0.24449325 0.0022384103 -0.28987607 -0.33850002 0.020092264 0.06877983 -0.2225809 -0.1489703
-0.24998838 -0.079202205 0.0094586555 0.0263334 -0.2504068 -0.14126654 0.15474379 -0.10664902
-0.038204696 0.13469525 0.21471606 0.14261197 0.00045035343 -0.058410842 -0.17774414 0.3086455
0.0839074 0.08694742 -0.10789961 0.060094245 -0.05053596 -0.14874887 0.057285544 0.13462822
0.045580115 -0.097202785 -0.21642424 0.024657592 0.112775944 0.022140551 0.14470424 0.049800687
0.05976906 -0.00875581 -0.10706388 -0.13207136 -0.28821295 -0.08920831 0.11122019 0.086488076
00000000: e66d eabd ee3e 2bbe 1fc5 bd3a 8fcd ac3e
00000010: 6302 8b3d 5527 093c c587 42be 9f72 283d
00000020: 272e a03c 4fdb c7bd a532 95bc ac55 97bd
00000030: b051 39be 0e7b f7be 3df2 d6bd 3e08 83be
00000040: 5920 dfbd 11b0 373e cd2f dabd 9640 65bb
00000050: 0e7a f439 447c ae3d c33d 75be 62ab 0dbe
00000060: d80a 913d 5680 6dbd 2bca 27be 8c04 41be
00000070: 780b 8bbe 4fe5 053e 8ff6 2b3e 3ff7 973d
00000080: 9725 a73d cabc 943e ee28 4b3e 0b9e 413e
00000090: ed52 5bbd eba7 8f3d 47bf 9bbd a016 9a3e
000000a0: 4efe dfbd 9339 aabd 26a2 e1bd dbc1 c93d
000000b0: 642c fe3d eae1 8cbd 97b1 d0bd d13b d1be
000000c0: 570d 54be 17c1 06be a1ee f1b9 710f 9dbd
000000d0: 55f2 7d3c d3e0 7d3e bed1 b23d 25c3 333d
000000e0: d5a6 2f3e 864f 81bd 3d21 bebe 2624 9abe
000000f0: 72a3 acbe 901e 423d 84cd 2e3e 3609 943e
00000100: 88ca 593c 1fe2 2dbe 975f d93d ef31 b03e
00000110: 9fa4 533e a242 4d3e 4556 8fbe 4b73 ccbb
00000120: ec47 11bd fe92 593d f8f5 a63e 0043 143e
00000130: 6583 eb3c 4d6b 63bd 1baa 1c3e 1151 86bd
00000140: ce7a d43d 15d2 c83d 06d4 44bc db1c c13d
00000150: f79e 803e 8102 c93e 5abc 71bd 558d c93e
00000160: 30cc 353d 34ce 8abc 5951 9e3e cd45 41be
00000170: 85b3 9bbe 3335 1b3e ae20 993e 3543 4d3e
00000180: 2c1c 803e 9cb6 453d 58db a13d f525 e3bc
00000190: f529 a43e eab2 733d 56ef 8c3d a883 5c3e
000001a0: b1ce 2a3b 6456 2dbe 253f 1d3b 79ad 0abb
000001b0: 59f0 8cbd 2fb3 813d 6788 85bd 7268 05be
000001c0: c860 50be 32bb 963e d210 023d 5075 aebe
000001d0: 7ac2 503e bc93 e5bc f620 80bd 5539 c63d
000001e0: a91d d73c 8178 fcbc 075e 263d 6a88 74be
000001f0: 3cf9 40be c6d9 a4bd 5959 073d 529d b1bc
00000200: fde8 f7be 0f8f 4cbc 4ffe 683d f0d3 5bbd
00000210: 3117 97bd 1618 f5bd 4cea 853d 67e8 ba3d
00000220: 4083 f33e eee0 babd c9c3 90bb 7f4f d3be
00000230: 148b f3bd b3cf 833d 7425 623e ca8b 02be
00000240: 7528 9b3d 8f19 71be c579 0bbd 7bdf 443e
00000250: b382 9abe 7c5f ffbd cbb3 25be 7aab f2be
00000260: c200 943e 922f f03d a580 b9bd 229d a8bc
00000270: 2c23 74be dba2 cbbe aa76 2dbd 3411 90bd
00000280: 5d2c 3f3d 8af7 073e 85d6 383e 70aa 083e
00000290: 3141 1f3e fbd4 6e3d 45f3 95be ea5a 9c3e
000002a0: 6dad 913d 71fc c4bd dfd9 1b3e 6270 763d
000002b0: d990 a6bd b176 92be 466f 35be f88c 453e
000002c0: e427 82be a27c 413d ae29 98be ef0f a23d
000002d0: e9c9 5d3d 160f 3b3e f0d2 8d3d a7b8 ea3d
000002e0: 6c47 22be 5fe5 e63d cc21 18be dcbf 48bd
000002f0: fd2f ce3c 054b e73d cda6 393e 704e 9a3e
00000300: 3c8c c13e 4ed1 5d3e 77d4 c8bd f2ef f63d
00000310: df50 1d3e 23c8 0e3e 0cde e9bd 878c 763e
00000320: fcd7 57be 37b2 c2bd 9604 873b 3cab 53be
00000330: d009 aa3d 1bbf c4bd 5d54 a2bd ed5c 3d3e
00000340: 705c 7abe 4bb2 123b a36a 94be e04f adbe
00000350: 8898 a43c 71dc 8c3d 3fec 63be ac8b 18be
00000360: f4fc 7fbe c434 a2bd 7af8 1a3c 24b9 d73c
00000370: 5235 80be 2da8 10be 2875 1e3e cd6a dabd
00000380: 877c 1cbd 8ded 093e 87de 5b3e df08 123e
00000390: 6a1d ec39 3540 6fbd 8f02 36be c806 9e3e
000003a0: a5d7 ab3d 7d11 b23d 79fa dcbd 6225 763d
000003b0: cbfe 4ebd a051 18be 3fa4 6a3d fbdb 093e
000003c0: 37b2 3a3d 4112 c7bd 519e 5dbe b8fe c93c
000003d0: 13f7 e63d 1a60 b53c 592d 143e cefb 4b3d
000003e0: 67d0 743d 8774 0fbc 4f44 dbbd b73d 07be
000003f0: a690 93be d9b2 b6bd 69c7 e33d a920 b13d

rnn.weight_hh_l0 f4 [96, 32]
0.09021306 0.019017493 0.4360581 -0.52720696 0.64605945 0.0026021043 -0.19146222 0.23510015
0.016138187 0.477255 0.39527988 0.18695435 0.15940556 -0.38053557 0.0015898772 -0.63572
-0.14399308 -0.17042592 -0.08751829 0.29196712 -0.0025339164 0.18521449 -0.023552814 0.15108341
0.2767703 0.0680442 0.0411595 0.17503689 0.23004076 0.063132994 0.19745554 -0.142113
-0.06815662 0.11975908 0.2020488 0.0093126185 0.24555759 -0.11035392 -0.2814848 0.33199963
0.27729586 0.118326776 0.0010529069 -0.10876366 0.21046458 -0.42375377 0.16144188 -0.25853297
0.074429095 0.0013743312 -0.07924254 -6.259132e-05 0.11744936 0.08107191 -0.062986724 0.10076181
-0.044548653 0.30161303 0.084030375 0.2154625 -0.24713711 -0.20020758 0.28952143 0.022703802
-0.20976509 0.4053578 0.08952911 -0.09898253 0.1036104 -0.05636633 -0.07712473 -0.024666151
0.30091074 -0.37955543 0.14345199 0.17696993 -0.023654548 0.16658178 -0.09700891 -0.046089567
-0.4503259 0.14771986 -0.17496853 0.5310652 0.44496733 -0.09900178 0.16760157 0.04391707
-0.41489142 -0.18337286 -0.3422042 0.77517873 -0.20645563 -0.21248603 0.24850973 0.01891123
-0.16767028 0.047591895 0.2982487 -0.21417183 0.30512002 -0.13511598 0.07320109 -0.094951555
0.16963279 0.15925787 0.29751587 0.27864537 0.14348927 -0.0023064627 0.20786998 -0.6139637
0.12746614 -0.06735478 0.20442522 0.7452007 0.2994524 0.07095388 0.44782814 0.2769301
-0.073472746 0.029091865 -0.115547724 0.48064178 0.19963428 0.065825775 0.14384252 -0.16860731
-0.14091583 -0.14279166 0.049893096 -0.012822489 -0.21741396 0.025964912 -0.019457176 -0.24788776
-0.009996787 0.09650726 -0.0673279 0.37570012 -0.048146106 -0.24608515 0.02020067 0.63209444
0.30329823 0.31733203 0.039378375 0.21058325 0.10121243 -0.5887404 0.06749135 -0.10279645
0.14556713 0.17435718 0.16060528 -0.39827642 0.5323383 0.056596234 -0.15566267 0.2502584
-0.06809341 0.042623244 -0.06820397 -0.4222704 0.20051958 -0.12575085 -0.26601434 0.10755457
0.45132613 -0.020390837 0.19409843 -0.01729037 0.11354738 -0.26886246 -0.5144055 -0.092424594
0.044602133 0.04088828 -0.40175515 0.2782338 0.09145962 0.17886631 -0.0875322 0.3438761
0.07088186 0.19535959 -0.06796543 0.32757232 0.1222215 -0.07551935 0.13003008 0.035419576
-0.06292262 0.034856483 -0.108960055 -0.18287362 0.09114422 -0.21266875 -0.006347714 -0.14919299
0.3200706 0.34338057 -0.040321883 0.20113352 0.0152457515 -0.12886474 -0.013958003 -0.46511453
0.24455567 -0.105794996 -0.3450461 0.6339142 0.15774463 0.2737431 -0.19880569 0.17167185
0.24710132 0.16759692 -0.0071461997 0.52381074 0.18160121 0.040115543 0.015902735 -0.017601527
0.18910931 0.043095894 0.084809124 -0.3331322 -0.014135148 0.046403762 0.085751876 -0.11874944
0.18692908 0.14747916 0.36867565 0.052282702 -0.07127265 -0.20493522 0.01995024 -0.123802476
-0.3066266 -0.12980105 0.15504976 0.24180788 0.21609333 0.32321984 -0.03622416 0.32727605
0.26233578 0.18209583 -0.11817014 0.065583736 -0.15341076 0.20953858 0.16835101 -0.18697555
00000000: a0c1 b83d 93ca 9b3c 0243 df3e 09f7 06bf
00000010: 2764 253f 1188 2a3b ac0e 44be 18be 703e
00000020: 3b34 843c c45a f43e 2062 ca3e f670 3f3e
00000030: 363b 233e 8fd5 c2be 6d63 d03a 8cbe 22bf
00000040: ec72 13be 2284 2ebe ca3c b3bd b77c 953e
00000050: 1010 26bb dea8 3d3e d5f1 c0bc 9cb5 1a3e
00000060: d6b4 8d3e c25a 8b3d dd96 283d df3c 333e
00000070: ce8f 6b3e df4b 813d c931 4a3e 1286 11be
00000080: b395 8bbd 4044 f53d e1e5 4e3e f493 183c
00000090: 7373 7b3e 3c01 e2bd c71e 90be dbfb a93e
000000a0: b9f9 8d3e 4f55 f23d b101 8a3a 7bbf debd
000000b0: 0784 573e 41f6 d8be 0551 253e 6f5e 84be
000000c0: 486e 983d e722 b43a ea49 a2bd 7643 83b8
000000d0: 4a89 f03d 0809 a63d 2fff 80bd 355c ce3d
000000e0: a678 36bd 066d 9a3e 1e18 ac3d 34a2 5c3e
000000f0: 8311 7dbe 3703 4dbe 273c 943e 53fd b93c
00000100: a9cc 56be 0f8b cf3e 0a5b b73d 5ab7 cabd
00000110: b031 d43d 61e0 66bd 92f3 9dbd ab10 cabc
00000120: f910 9a3e 1755 c2be 14e5 123e 9b37 353e
00000130: 2fc7 c1bc 6a94 2a3e 9bac c6bd 6ac8 3cbd
00000140: 1e91 e6be e043 173e f32a 33be e4f3 073f
00000150: c2d2 e33e 72c1 cabd bf9f 2b3e 63e2 333d
00000160: a66c d4be 18c6 3bbe 6435 afbe 1d72 463f
00000170: 1b69 53be f095 59be 5679 7e3e b9eb 9a3c
00000180: c2b1 2bbe b8ef 423d 0eb4 983e dc4f 5bbe
00000190: b138 9c3e d85b 0abe 74ea 953d f675 c2bd
000001a0: 38b4 2d3e 7f14 233e 0054 983e 9baa 8e3e
000001b0: daee 123e 0628 17bb dedb 543e ba2c 1dbf
000001c0: 7c86 023e 4ef1 89bd d854 513e 79c5 3e3f
000001d0: d351 993e 4550 913d bb49 e53e c8c9 8d3e
000001e0: e178 96bd 1052 ee3c 49a4 ecbd ae16 f63e
000001f0: ee6c 4c3e aacf 863d 744b 133e 65a7 2cbe
00000200: 3d4c 10be fa37 12be b45c 4c3d 6b15 52bc
00000210: c4a1 5ebe 5eb4 d43c a864 9fbc 4ad6 7dbe
00000220: 90c9 23bc 99a5 c53d 36e3 89bd c45b c03e
00000230: da34 45bd bffd 7bbe e07b a53c f1d0 213f
00000240: e849 9b3e 5879 a23e 384b 213d 23a3 573e
00000250: 7648 cf3d b1b7 16bf e838 8a3d f286 d2bd
00000260: 8d0f 153e b08a 323e b675 243e e3ea cbbe
00000270: 5347 083f 74d1 673d 0966 1fbe de21 803e
00000280: 8f74 8bbd b695 2e3d 86ae 8bbd d333 d8be
00000290: 0155 4d3e d5c4 00be 0833 88be 9245 dc3d
000002a0: 3814 e73e af0a a7bc bdc1 463e 89a4 8dbc
000002b0: 878b e83d 57a8 89be 14b0 03bf 1b49 bdbd
000002c0: bab0 363d 787a 273d dab2 cdbe a974 8e3e
000002d0: 2e4f bb3d bb28 373e 1544 b3bd 8710 b03e
000002e0: 822a 913d 580c 483e 7631 8bbd 8fb7 a73e
000002f0: 444f fa3d e4a9 9abd 9b26 053e 1e14 113d
00000300: 93dd 80bd acc5 0e3d 7326 dfbd 3943 3bbe
00000310: d2a9 ba3d d6c5 59be 7c00 d0bb 0cc6 18be
00000320: 4be0 a33e 94cf af3e 8f28 25bd f2f5 4d3e
00000330: 51c9 793c 1ef5 03be 1cb0 64bc 7e23 eebe
00000340: cd6c 7a3e 0cab d8bd e2a9 b0be 3348 223f
00000350: cf87 213e 0e28 8c3e b893 4bbe bfca 2f3e
00000360: 2108 7d3e 879e 2b3e ab2a eabb 7618 063f
00000370: abf5 393e 3250 243d 7446 823c 1431 90bc
00000380: dfa5 413e 5285 303d 68b0 ad3d 4e90 aabe
00000390: 1c97 67bc df11 3e3d ae9e af3d e832 f3bd
000003a0: 566a 3f3e c704 173e 0ec3 bc3e 6326 563d
000003b0: 65f7 91bd 8ada 51be b06e a33c 278c fdbd
000003c0: 29fe 9cbe 91ea 04be 5dc5 1e3e 7c9c 773e
000003d0: 9247 5d3e 127d a53e c95f 14bd ba90 a73e
000003e0: e050 863e 5477 3a3e 3003 f2bd c450 863d
000003f0: b617 1dbe 4891 563e 3564 2c3e 8576 3fbe

rnn.bias_ih_l0 f4 [96]
0.10610448 0.17486726 0.19543266 0.22645131 0.17124626 0.21734886 0.20696671 0.27462015
0.15522794 0.04020452 0.26719508 0.025923342 0.0072521907 0.0076550115 -0.077389814 0.070252456
0.10084845 0.1480277 0.121530116 0.3791095 0.17471465 0.13785222 -0.053018864 0.07549186
0.1310483 -0.032050736 0.2229659 -0.12177757 0.15114234 0.050398227 0.22732647 0.34373268
-0.4127979 -0.17239183 -0.1467766 -0.050292563 -0.38365415 -0.29143927 -0.25294003 0.17729786
-0.23096997 -0.12410423 -0.20060883 -0.1781068 -0.20352496 -0.16820022 -0.22263268 0.38215616
-0.10590649 -0.29277337 -0.21652696 0.2746224 -0.09654875 -0.2777689 0.29711238 -0.44645748
-0.08119816 0.13979755 -0.29913777 0.16821563 0.106584944 -0.28025675 -0.030410513 -0.2460335
0.19141378 0.102428585 0.14347954 -0.084119044 -0.28805134 -0.1359327 -0.096639894 -0.00804897
0.0856195 -0.086167894 0.22182667 -0.1616751 -0.03361665 -0.15147346 -0.14680593 -0.055901825
0.16802363 -0.023290975 -0.14750122 0.07325102 0.07691114 -0.055738367 -0.16338624 0.035497718
-0.09798404 0.014235602 -0.04369405 0.11555853 -0.0051989853 0.090131864 0.14500506 -0.15475713
00000000: 4e4d d93d 6710 333e 801f 483e dae2 673e
00000010: 2e5b 2f3e b390 5e3e 15ef 533e 039b 8c3e
00000020: 13f4 1e3e 7fad 243d cbcd 883e 305d d43c
00000030: c9a3 ed3b e4d6 fa3b 8d7e 9ebd 85e0 8f3d
00000040: a289 ce3d 9394 173e c8e4 f83d a41a c23e
00000050: 66e8 323e 2229 0d3e 4f2a 59bd 7a9b 9a3d
00000060: 8731 063e a247 03bd 2c51 643e 8566 f9bd
00000070: 0fc5 1a3e 5f6e 4e3d 45c8 683e bbfd af3e
00000080: 3f5a d3be 7c87 30be 9b4c 16be 93ff 4dbd
00000090: 516e c4be 8737 95be 5b81 81be 928d 353e
000000a0: 6483 6cbe 5c2a febd 676c 4dbe a161 36be
000000b0: d968 50be ae3c 2cbe d2f9 63be f9a9 c33e
000000c0: 80e5 d8bd 64e6 95be 3eb9 5dbe 4f9b 8c3e
000000d0: 5abb c5bd ba37 8ebe 1d1f 983e 1396 e4be
000000e0: 394b a6bd 1727 0f3e 9628 99be b840 2c3e
000000f0: 3549 da3d d07d 8fbe 781f f9bc 35f0 7bbe
00000100: f901 443e 14c6 d13d 4dec 123e 9b46 acbd
00000110: 777b 93be f131 0bbe 23eb c5bd d4df 03bc
00000120: 4759 af3d cb78 b0bd 8826 633e 288e 25be
00000130: 9db1 09bd dc1b 1bbe 4b54 16be 50f9 64bd
00000140: 630e 2c3e b7cc bebc 8f0a 17be a104 963d
00000150: 9683 9d3d ea4d 64bd b94e 27be 0e66 113d
00000160: dbab c8bd 713c 693c 88f8 32bd f3a9 ec3d
00000170: 405c aabb 0e97 b83d 357c 143e a778 1ebe

rnn.bias_hh_l0 f4 [96]
0.11497824 0.11907126 0.13414957 0.1478685 0.07520677 0.038941156 0.20028277 0.13801675
0.03622777 0.047148652 0.21947746 0.06220474 -0.041528113 0.27164108 -0.0027805965 -0.03225231
0.0016444788 0.13190408 0.21156158 0.17121851 -0.018163403 0.13594484 0.06717007 0.14107029
0.14629376 0.05015265 0.17733394 0.03277142 0.18230693 -0.026792208 0.025544155 0.31496435
-0.3780236 -0.44958606 -0.23929052 -0.039684236 -0.2095639 -0.29324678 -0.15670557 0.07022097
-0.31469643 -0.101871625 -0.18301128 -0.11760452 -0.3590839 -0.08652229 -0.061166152 0.20318478
-0.11032732 -0.29036808 -0.22152685 0.09753118 -0.35083506 -0.46958458 0.14210795 -0.24804895
-0.045437396 0.1200502 -0.050584886 0.11889398 0.3147162 -0.23320745 -0.006777555 -0.0769539
0.3319269 0.34373608 -0.27314734 0.2663134 0.15766595 -0.2496311 -0.3190317 0.27078563
-0.041617163 0.025084125 0.06489422 -0.15854986 0.2166209 0.06967806 0.30867893 0.048069287
-0.06754544 -0.18649489 -0.067922264 0.11644725 0.2922822 0.21079162 0.073994115 0.25072917
0.030953763 0.072068304 0.055916768 0.03426433 -0.095504194 -0.009741787 0.2725596 -0.3112552
00000000: b679 eb3d a2db f33d 815e 093e d76a 173e
00000010: 0206 9a3d c380 1f3d ed16 4d3e 4354 0d3e
00000020: 9263 143d f21e 413d b3be 603e 66ca 7e3d
00000030: 6219 2abd 8a14 8b3e ab3a 36bb 001b 04bd
00000040: 8d8b d73a dd11 073e 99a3 583e e853 2f3e
00000050: 6bcb 94bc 2035 0b3e 7690 893d bb74 103e
00000060: 08ce 153e dd6c 4d3d 0797 353e 533b 063d
00000070: abae 3a3e 557b dbbc fa41 d13c 0243 a13e
00000080: 4f8c c1be 2530 e6be 9308 75be f08b 22bd
00000090: eb97 56be 7124 96be 6d77 20be 03d0 8f3d
000000a0: e41f a1be 12a2 d0bd 4f67 3bbe a3da f0bd
000000b0: d8d9 b7be 9932 b1bd 5c89 7abd ac0f 503e
000000c0: 4af3 e1bd 20ab 94be efd7 62be 6dbe c73d
000000d0: a7a0 b3be 646d f0be bf84 113e 8b00 7ebe
000000e0: 901c 3abd e1dc f53d 1932 4fbd b07e f33d
000000f0: 7b22 a13e efcd 6ebe 4116 debb 029a 9dbd
00000100: 53f2 a93e 2dfe af3e f8d9 8bbe 3b5a 883e
00000110: 2f73 213e 4c9f 7fbe 1f58 a3be 6aa4 8a3e
00000120: c276 2abd 397d cd3c 43e7 843d e55a 22be
00000130: dfd1 5d3e 5fb3 8e3d 2a0b 9e3e 4de4 443d
00000140: 4355 8abd 84f8 3ebe d41a 8bbd e57b ee3d
00000150: 03a6 953e c2d9 573e 3a8a 973d 935f 803e
00000160: bf92 fd3c 8c98 933d fb08 653d c158 0c3d
00000170: b497 c3bd 049c 1fbc ef8c 8b3e d75c 9fbe

fc.weight f4 [88, 32]
-0.35837215 -0.31410125 -0.28246063 -0.036635835 -0.23248762 0.26965284 0.2262536 -0.4061435
-0.2973739 -0.046713468 -0.4862108 0.26773915 -0.13769145 0.49220675 0.10500298 0.23217021
-0.0487792 0.23527302 0.040700123 -0.27252075 -0.311759 -0.11298261 0.5440701 -0.535881
-0.35223395 -0.72936326 0.3896102 -0.37099448 0.15013361 0.41198057 -0.4235325 0.28570917
-0.33285347 -0.17919384 -0.172474 -0.109963246 -0.37684378 0.17537527 0.20794791 -0.49787754
-0.14638227 0.0049812254 -0.44224808 0.23051137 -0.0823041 0.40357465 0.053905927 0.18149707
0.09389409 0.22784652 0.10172263 -0.29281622 -0.42907917 -0.013365353 0.44616178 -0.32083562
-0.31431752 -0.7591123 0.27668485 -0.40360993 0.046799924 0.39855465 -0.45935908 0.31884158
-0.34679577 -0.20048743 -0.14938532 -0.072253056 -0.22276576 0.1558268 0.3298897 -0.23851968
-0.19050069 0.010905675 -0.22319563 0.18204497 -0.25049594 0.4753876 0.00776502 0.1972811
-0.05614201 0.22914843 0.033161916 -0.26106274 -0.37429285 -0.13924176 0.42236504 -0.5503232
-0.23583828 -0.72086203 0.43669587 -0.23748657 0.11409408 0.27527526 -0.36122516 0.33099204
0.2827684 0.24981292 -0.37441555 0.34012648 -0.024926197 -0.24349566 -0.24403295 0.19807254
0.37474334 -0.46264893 0.19532193 -0.27440718 0.35858628 0.91805375 0.40342137 -0.20903878
-0.65926236 -0.30378914 -0.39197987 0.12149321 0.24483879 -0.39250252 -0.1843121 0.16758615
-0.3957199 -0.6849003 -0.26712215 0.30883402 -0.1791156 -0.2825599 0.22249119 -0.2797791
-0.48741534 -0.42804033 0.27335244 -0.35721892 0.111562714 0.4373117 0.37476853 -0.024764793
0.1394209 0.2749415 -0.12406819 0.3955617 -0.35843813 -0.041317932 -0.3153605 -0.011016602
-0.020937216 0.35012117 -0.0274986 -0.13725747 0.12443472 -0.108280405 0.069878854 -0.023111613
0.23585379 0.11085988 -0.03379303 -0.0677992 -0.026775146 0.14318824 -0.33415565 0.3606448
0.25841936 0.22110838 -0.49538267 0.23933418 -0.18390577 -0.24081697 -0.2391913 0.17465405
0.37823305 0.06946462 0.17912921 -0.2626459 0.13329698 -0.24142174 -0.17795342 -0.056052264
0.25477552 -0.31422865 -0.42550573 0.068690054 0.20477279 0.40101564 -0.16865112 0.11956387
0.04929088 0.17164774 -0.021711279 0.20147768 -0.04728282 -0.040975638 0.21664032 -0.2638907
0.2346611 0.2119478 0.0819284 0.23524591 0.07454067 -0.23572612 -0.20751752 0.19550729
0.004237984 -0.19186595 0.16236264 -0.24026304 0.01625793 -0.20410895 0.265021 -0.14464852
0.1262372 -0.2952718 0.11740013 0.11655306 -0.029485544 -0.4717385 -0.14607187 0.13239247
-0.014125778 0.18791187 -0.32274452 0.102251634 0.011263325 -0.16793522 0.16830775 -0.24505837
0.2679689 0.20577648 -0.4847349 0.3447223 -0.17608273 -0.22546725 -0.26256713 0.18828051
0.359969 0.16707459 0.1801872 -0.26120475 0.22522467 -0.22576912 -0.21516924 -0.1846737
0.31551105 -0.31561333 -0.43791807 0.07700211 0.084956445 0.45183682 -0.1846753 0.19406885
0.17400879 0.24323429 0.30101773 0.00031245 -0.15157618 -0.1735915 0.20963976 -0.25874436
00000000: 8e7c b7be e1d1 a0be ae9e 90be 750f 16bd
00000010: 3c11 6ebe f00f 8a3e 06af 673e 0af2 cfbe
00000020: 6441 98be 9f56 3fbd 9ff0 f8be 1b15 893e
00000030: fdfe 0cbe 8602 fc3e cd0b d73d 07be 6d3e
00000040: b3cc 47bd 69eb 703e 2cb5 263d d787 8bbe
00000050: e09e 9fbe 6d63 e7bd 2e48 0b3f 7f2f 09bf
00000060: 0258 b4be 8db7 3abf fd7a c73e fdf2 bdbe
00000070: a0bc 193e 1eef d23e 40d9 d8be 7948 923e
00000080: c56b aabe 977e 37be 069d 30be 6934 e1bd
00000090: abf1 c0be 9395 333e 4cf0 543e cee9 febe
000000a0: 3ce5 15be 8c39 a33b 576e e2be 2c0b 6c3e
000000b0: 0d8f a8bd 56a1 ce3e 76cc 5c3d 5eda 393e
000000c0: 8b4b c03d 9950 693e f453 d03d 02ec 95be
000000d0: 44b0 dbbe 5bfa 5abc 516f e43e 9144 a4be
000000e0: 3aee a0be 2f55 42bf a3a9 8d3e f6a5 cebe
000000f0: 47b1 3f3d 5b0f cc3e 1d31 ebbe 343f a33e
00000100: 378f b1be 944c 4dbe 77f8 18be 69f9 93bd
00000110: b51c 64be 1091 1f3e 4ee7 a83e 813e 74be
00000120: 9d12 43be b7ad 323c 658d 64be ff69 3a3e
00000130: 0141 80be 0166 f33e b571 fe3b 0f04 4a3e
00000140: 2af5 65bd e3a5 6a3e cad4 073d 04aa 85be
00000150: 50a3 bfbe 6495 0ebe 3b40 d83e fbe1 0cbf
00000160: 977f 71be 6a8a 38bf 9a96 df3e ae2f 73be
00000170: 28aa e93d e1f0 8c3e 81f2 b8be ca77 a93e
00000180: 05c7 903e f5ce 7f3e 65b3 bfbe 0f25 ae3e
00000190: 0632 ccbc ed56 79be c6e3 79be 87d3 4a3e
000001a0: 5cde bf3e 52e0 ecbe 7902 483e 197f 8cbe
000001b0: 9f98 b73e 9205 6b3f 3f8d ce3e 430e 56be
000001c0: 6bc5 28bf 408a 9bbe 96b1 c8be 6fd1 f83d
000001d0: 05b7 7a3e 17f6 c8be 50bc 3cbe b49b 2b3e
000001e0: cc9b cabe a055 2fbf 3cc4 88be 7e1f 9e3e
000001f0: 146a 37be b1ab 90be bbd4 633e 353f 8fbe
00000200: 818e f9be 1a28 dbbe daf4 8b3e 66e5 b6be
00000210: fe7a e43d 52e7 df3e a9e1 bf3e 89df cabc
00000220: 5ac4 0e3e 22c5 8c3e 7717 febd 1087 ca3e
00000230: 3485 b7be fe3c 29bd ee76 a1be fa7e 34bc
00000240: 8684 abbc 1543 b33e be44 e1bc 398d 0cbe
00000250: a1d7 fe3d 1ec2 ddbd a51c 8f3d 9154 bdbc
00000260: a883 713e 810a e33d 8f6a 0abd 4fda 8abd
00000270: 8d57 dbbc f09f 123e 7316 abbe 6fa6 b83e
00000280: 8b4f 843e 3c6a 623e cca2 fdbe 0514 753e
00000290: cb51 3cbe b998 76be 90ee 74be 83d8 323e
000002a0: c3a7 c13e 7743 8e3d a66d 373e 8679 86be
000002b0: 017f 083e 4337 77be 6c39 36be 0f97 65bd
000002c0: f071 823e 94e2 a0be e3db d9be 5fad 8c3d
000002d0: f5af 513e ec51 cd3e e1b2 2cbe e7dd f43d
000002e0: 3ce5 493d 6dc4 2f3e dadb b1bc 2a50 4e3e
000002f0: a1ab 41bd 12d6 27bd f6d6 5d3e af1c 87be
00000300: 004b 703e d808 593e 14ca a73d 4ee4 703e
00000310: c7a8 983d 3062 71be 797f 54be 1033 483e
00000320: c9de 8a3b 8278 44be 6442 263e 8407 76be
00000330: 5a2f 853c f001 51be d5b0 873e be1e 14be
00000340: 5344 013e de2d 97be 7b6f f03d 5fb3 ee3d
00000350: ab8b f1bc b587 f1be dd93 15be e491 073e
00000360: cf6f 67bc f86b 403e c53e a5be 4e69 d13d
00000370: cf89 383c 36f7 2bbe de58 2c3e 95f0 7abe
00000380: 3833 893e 12b7 523e 2c2f f8be 717f b03e
00000390: 084f 34be e3e0 66be 336f 86be 9bcc 403e
000003a0: db4d b83e 9a15 2b3e fe82 383e a1bc 85be
000003b0: 4ca1 663e 0530 67be 5355 5cbe 1a1b 3dbe
000003c0: aa8a a13e 1298 a1be cc36 e0be 48b3 9d3d
000003d0: a5fd ad3d 2857 e73e 861b 3dbe fcb9 463e
000003e0: 5c2f 323e 6912 793e ff1e 9a3e 54d0 a339
000003f0: c936 1bbe f8c1 31be ceab 563e 247a 84be

fc.bias f4 [88]
-0.51637095 -0.36398834 -0.49663612 0.34086114 0.059564516 0.37485784 0.10588214 0.32280183
0.20962396 -0.02413708 -0.26010704 0.10416294 -0.18754369 -0.05720961 0.15675966 0.42114672
-0.06950432 0.10276577 0.45286685 -0.18689318 -0.1477153 -0.038680106 -0.11689691 0.31841448
-0.068972185 0.35716575 -0.19351198 0.28345534 -0.16494408 -0.09534568 0.11062988 0.28621075
0.08955525 -0.24447449 -0.29670352 -0.35975865 -0.3647986 -0.13537887 -0.24561335 -0.4894415
-0.33939967 -0.25479227 -0.15795623 -0.029688396 -0.2902779 -0.3525837 -0.15466112 -0.23143874
-0.36576024 -0.01150716 -0.17209527 -0.43457314 -0.32542711 -0.2898753 -0.38574532 -0.25169244
-0.17611963 -0.29331338 -0.4944565 -0.28772742 -0.5124794 -0.27254814 -0.37222704 -0.4327369
-0.3563473 -0.15455091 -0.41635218 -0.3762905 -0.2775109 -0.3452907 -0.40076455 -0.20913336
-0.38959846 -0.32834384 -0.4911161 -0.2913473 -0.30276635 -0.14189331 -0.24090609 -0.50725937
-0.4543649 -0.21107727 -0.41425905 -0.4656851 -0.20188116 -0.3568527 -0.2536916 -0.22403613
00000000: e330 04bf ae5c babe 1747 febe 5a85 ae3e
00000010: ecf9 733d 5eed bf3e bcd8 d83d 4846 a53e
00000020: aaa7 563e 20bb c5bc c02c 85be 6153 d53d
00000030: 740b 40be a054 6abd 9b85 203e 8ba0 d73e
00000040: 4858 8ebd dc76 d23d 2ade e73e ed60 3fbe
00000050: ae42 17be 086f 1ebd a667 efbd 3907 a33e
00000060: 4a41 8dbd 6ede b63e 0128 46be 0f21 913e
00000070: 1ae7 28be 9944 c3bd eb91 e23d 378a 923e
00000080: be68 b73d 8557 7abe 86e9 97be 4932 b8be
00000090: e2c6 babe c2a0 0abe 1182 7bbe 1498 fabe
000000a0: cbc5 adbe 2274 82be 47bf 21be 1435 f3bc
000000b0: 4e9f 94be da85 b4be 7c5f 1ebe 47fe 6cbe
000000c0: ed44 bbbe 8788 3cbc be39 30be 5f80 debe
000000d0: 629e a6be 896a 94be 6980 c5be d5dd 80be
000000e0: b458 34be 2c2d 96be 6729 fdbe 0251 93be
000000f0: da31 03bf 6e8b 8bbe 8b94 bebe b18f ddbe
00000100: 2773 b6be 9842 1ebe 1d2c d5be 26a9 c0be
00000110: e915 8ebe f1c9 b0be 0331 cdbe 0e27 56be
00000120: 7379 c7be af1c a8be 9273 fbbe 792b 95be
00000130: 3104 9bbe 7b4c 11be 16b0 76be c0db 01bf
00000140: 84a2 e8be a424 58be c319 d4be 476e eebe
00000150: efb9 4ebe 66b5 b6be dee3 81be ba69 65be
