lecture4/RNNs/model_storage/ch7/model1_unconditioned_surname_generation/model.pth (torch, 50259 bytes, 7 tensors)

char_emb.weight f4 [88, 32]
0	0x00000000	0.0
1	0x00000000	0.0
2	0x00000000	0.0
3	0x00000000	0.0
4	0x00000000	0.0
5	0x00000000	0.0
6	0x00000000	0.0
7	0x00000000	0.0
8	0x00000000	0.0
9	0x00000000	0.0
10	0x00000000	0.0
11	0x00000000	0.0
12	0x00000000	0.0
13	0x00000000	0.0
14	0x00000000	0.0
15	0x00000000	0.0
16	0x00000000	0.0
17	0x00000000	0.0
18	0x00000000	0.0
19	0x00000000	0.0
20	0x00000000	0.0
21	0x00000000	0.0
22	0x00000000	0.0
23	0x00000000	0.0
24	0x00000000	0.0
25	0x00000000	0.0
26	0x00000000	0.0
27	0x00000000	0.0
28	0x00000000	0.0
29	0x00000000	0.0
30	0x00000000	0.0
31	0x00000000	0.0
32	0xbf29c0a7	-0.6630959
33	0xbe80a726	-0.25127524
34	0x3f814c6d	1.0101448
35	0x3df8ed81	0.12154675
36	0x3e223370	0.15839934
37	0x3f912787	1.1340188
38	0xbf93b2eb	-1.1538976
39	0xbe98c778	-0.29839683
40	0xbf01edea	-0.50753653
41	0xbf6c8619	-0.92392117
42	0x3f0bf4ee	0.5467061
43	0xbfbf54df	-1.4947776
44	0xbf9a54dd	-1.2057148
45	0x3f1262c9	0.57181984
46	0xbf18ec39	-0.5973545
47	0xbf3194bb	-0.6936757
48	0x3fd2a104	1.6455388
49	0xbf4d90f5	-0.8029931
50	0x3facfb08	1.3514109
51	0xbe8d454d	-0.27591935
52	0xbfc16307	-1.5108346
53	0x4006b49a	2.104773
54	0x4030d452	2.762959
55	0xbfdf8e45	-1.7465292
56	0x3fb9cdb5	1.4515902
57	0xbfc150f5	-1.5102831
58	0x3f523722	0.82115376
59	0xbe589a99	-0.21152724
60	0x3f4765e1	0.7788983
61	0x3fc44227	1.5332688
62	0x3fce0bd8	1.6097364
63	0xbece73eb	-0.40322813
64	0xbf820854	-1.0158792
65	0x3f23d8cd	0.64002687
66	0xbe5f62d9	-0.21815051
67	0xbc0f21ca	-0.008736083
68	0xbf0a78e0	-0.5409069
69	0x3eec3133	0.46131286
70	0xbe83c9a2	-0.2573977
71	0xbfb9e1cb	-1.4522032
72	0x401544c6	2.3323226
73	0xbf0a9aeb	-0.54142636
74	0x3ea254f9	0.31705454
75	0x3f6565ae	0.89608276
76	0xbfc7198b	-1.555467
77	0x3fa22693	1.2668022
78	0x3ed8b03f	0.42321965
79	0x3e9275ac	0.28605402
80	0x40381339	2.8761733
81	0xbfc90bf0	-1.5706768
82	0x3fa28900	1.2698059
83	0x3f55ac03	0.83465594
84	0xbfe9481e	-1.8225133
85	0xbfcbd472	-1.5924208
86	0x3f5b46f3	0.85655135
87	0xbea0b598	-0.31388545
88	0x3f1b4a57	0.6066031
89	0xbf2eec8c	-0.6832969
90	0x3f55b351	0.8347674
91	0xbf4c4837	-0.7979769
92	0xbee31406	-0.44351214
93	0xbee665e7	-0.4499962
94	0xbfa92212	-1.3213522
95	0xbf208ab3	-0.6271164
96	0xbfd55e31	-1.666937
97	0xbfaebd08	-1.3651438
98	0xbe297f26	-0.1655241
99	0x3f76561e	0.96225154
100	0x3d013969	0.03154889
101	0xbf3ded43	-0.7419016
102	0xbe9877e0	-0.29778957
103	0x3c8c9f03	0.017165666
104	0xbe357a2f	-0.1772239
105	0xbe08a1bf	-0.13342951
106	0x3e968194	0.29395735
107	0x3fb1462d	1.3849541
108	0x3df7a11c	0.12091276
109	0x4022aca4	2.5417871
110	0xbf23f530	-0.64046
111	0xbffcac60	-1.9740105
112	0xbea8bd4d	-0.32956925
113	0x3c0265d7	0.007958851
114	0x3f6d1db9	0.9262348
115	0xbff1391e	-1.8845556
116	0x3e2af7fb	0.1669616
117	0x3eead08c	0.45862234
118	0xbfe2130e	-1.7662065
119	0x3f160331	0.5859862
120	0x3fe021cd	1.7510315
121	0x3e8fbad0	0.28072214
122	0x3e9f3690	0.31096315
123	0xbf275cb0	-0.65375805
124	0xbf285a33	-0.65762633
125	0x3ea30bce	0.31844944
126	0xbf0cb1b3	-0.5495865
127	0xbfbb82a5	-1.4649245
128	0xc0085b76	-2.1305823
129	0x3ff5c7d9	1.9201614
130	0x3f77cd43	0.9679758
131	0xbeebee95	-0.4608046
132	0x3f903f7b	1.1269373
133	0x3fed396f	1.8533152
134	0xbe87bc10	-0.26510668
135	0xbfb9781b	-1.4489778
136	0xbdb285c4	-0.0871692
137	0xbe24eab7	-0.16105162
138	0x3f59b830	0.8504667
139	0x3f09def7	0.5385584
140	0x3e5c8c8c	0.2153799
141	0xbf7bdde0	-0.9838543
142	0x3f1e0912	0.6173259
143	0x3f36e852	0.7144824
144	0x40146987	2.3189409
145	0x3f783d61	0.96968657
146	0xbfd21477	-1.6412495
147	0xbf0dce0c	-0.5539253
148	0xbe821654	-0.2540766
149	0xbeb8e1fb	-0.3610991
150	0xbf82d312	-1.0220664
151	0x3fadc01a	1.357425
152	0xbf65f901	-0.89833075
153	0x3eaed5ca	0.34147483
154	0x3f872e38	1.056098
155	0xbe013678	-0.12618434
156	0xbfb73523	-1.4313091
157	0xbf397f0f	-0.724595
158	0x3fbbb7c0	1.4665451
159	0xbec4352a	-0.3832181
160	0xbf95f920	-1.1716652
161	0x3e9d8274	0.3076359
162	0xbed21ebb	-0.4103907
163	0x401a0ae9	2.406916
164	0xc046b92f	-3.1050527
165	0x3e98fec2	0.29881865
166	0xbf681016	-0.90649545
167	0xbe821c21	-0.25412086
168	0x3e61faa2	0.22068265
169	0x3ffd2f6d	1.9780098
170	0xbecc7e65	-0.3994018
171	0xbe9d9174	-0.30775034
172	0xbfaf1b5e	-1.3680227
173	0x3c29543e	0.010335026
174	0xc0073255	-2.112447
175	0xbfc236a0	-1.517292
176	0xbe010d4c	-0.12602729
177	0xbf9f2e48	-1.2435999
178	0x3e45f87b	0.19333069
179	0x3e0d2d7b	0.1378688
180	0x3eeb207e	0.45923227
181	0x3f2afcdc	0.6679208
182	0xbfd1b702	-1.6383975
183	0x3f8c2fb5	1.0952059
184	0x3f94ca05	1.1624151
185	0x3fa8c2ba	1.3184426
186	0x3f12d195	0.57351047
187	0xbf8a075b	-1.0783495
188	0xbf6968c0	-0.9117546
189	0x4010fa78	2.2652874
190	0x3eb2598d	0.34833947
191	0x3fbc67da	1.4719193
192	0xbc2bb3ea	-0.010479907
193	0xbed7d4b7	-0.42154476
194	0x3ff181ff	1.8867797
195	0x3fb6c07b	1.427749
196	0x3f6036c2	0.87583554
197	0xbee276dc	-0.44231308
198	0xbeb3bf7b	-0.35107026
199	0x3ecc6326	0.39919394
200	0x3ddec09b	0.1087658
201	0xbfe2b8ac	-1.7712607
202	0x3fa00672	1.2501967
203	0x3f073c17	0.52826065
204	0xbfa41516	-1.2818935
205	0xbf7a6657	-0.9781241
206	0xbde8c74a	-0.11366136
207	0x3d93e080	0.07220554
208	0x3ef9e286	0.48805636
209	0xbf33c826	-0.7022728
210	0xbe80e5d8	-0.25175357
211	0xbf0cf51b	-0.550615
212	0x3ee44db3	0.4459053
213	0x3f381894	0.71912503
214	0x3fb501d9	1.4141189
215	0x3f558336	0.83403337
216	0x3f2508e3	0.64466685
217	0x3f6821a0	0.9067631
218	0xbef0d2ec	-0.4703592
219	0xbf4c7232	-0.7986175
220	0xbf68b039	-0.90893894
221	0x3ea7a1b4	0.32740557
222	0xbf3ea0e3	-0.74464244
223	0xbe19ded4	-0.15026408
224	0xbf5b4cd8	-0.8566413
225	0xbde4995b	-0.11162063
226	0xbe88cf1e	-0.26720518
227	0xbe969206	-0.29408282
228	0xbec1c7b2	-0.37847668
229	0x3f406dc1	0.7516747
230	0xbce77baf	-0.02825722
231	0xbe858f6e	-0.2608599
232	0x3f831f2d	1.0243889
233	0xbfd653ae	-1.6744287
234	0x3eaabda3	0.33347806
235	0xc00cf3e2	-2.2023854
236	0xbf84fbf6	-1.0389392
237	0x3d86f379	0.065894075
238	0xbf463d1d	-0.77437
239	0xbede548c	-0.4342388
240	0x3fda7af3	1.7068771
241	0xbe109b4c	-0.14121741
242	0xbf57699a	-0.8414551
243	0xbf886de8	-1.0658541
244	0x3dd01d78	0.10161871
245	0xbed65e80	-0.41868973
246	0xbe3c27b8	-0.18374527
247	0xbf9d2619	-1.2277251
248	0xbe85c6fe	-0.26128381
249	0x3ead4eeb	0.33849272
250	0xbf8ddb9c	-1.1082644
251	0xbf9af901	-1.210724
252	0x3f64206a	0.8911196
253	0xbfe1ab9b	-1.7630495
254	0xbef7ebb5	-0.48422018
255	0x3faf7151	1.3706456

rnn.weight_ih_l0 f4 [96, 32]
0	0xbe43fe50	-0.19139981
1	0x3ee15f47	0.44018003
2	0xbebf2fca	-0.37341148
3	0xbd734dc6	-0.059400342
4	0xbd29c929	-0.041451607
5	0x3e140b98	0.14457548
6	0xbe97a1f7	-0.29615757
7	0x3be3d045	0.006952318
8	0xbc235959	-0.009970033
9	0x3e3bb04d	0.18328972
10	0xbebb8824	-0.36627305
11	0xbcffb30d	-0.031213308
12	0x3d0fc6ba	0.03510163
13	0x3ead1e9e	0.33812422
14	0xbe1d8ebb	-0.15386479
15	0xbe2cf20e	-0.16889212
16	0x3e46d8f1	0.19418694
17	0x3e702d73	0.23454838
18	0xbca0f0fb	-0.019646158
19	0xbdbc4235	-0.091923155
20	0x3e7f3c10	0.24925256
21	0xbf250dba	-0.6447407
22	0xbd7f6bb9	-0.06235859
23	0x3d126476	0.03574034
24	0xbde3f20d	-0.11130152
25	0x3d91fbfd	0.07128141
26	0x3e6275fe	0.22115323
27	0xbbbc7946	-0.0057517616
28	0x3e56687b	0.20938294
29	0x3c7e09db	0.015505279
30	0xbcaf716e	-0.021416392
31	0xbd05cccf	-0.032666024
32	0xbd8251b2	-0.063632384
33	0x3d827384	0.06369689
34	0x3e55b88a	0.20871177
35	0xbe2e0dc2	-0.16997436
36	0x3e92d106	0.28675097
37	0x3cf7762d	0.030207718
38	0xbe2e2c70	-0.17009139
39	0x3e8f5022	0.27990824
40	0x3d344920	0.04401505
41	0x3d7e2d0d	0.062054683
42	0x3e5cfe9b	0.215815
43	0x3db21606	0.08695607
44	0xbde8e60a	-0.113720015
45	0xbe89c501	-0.26908115
46	0x3e1cdb97	0.15318142
47	0xbcb6af39	-0.02230035
48	0x3de8c4fb	0.11365696
49	0x3e12d157	0.1433767
50	0x3e92680f	0.28595015
51	0xbe807ceb	-0.25095305
52	0x3e0b563d	0.13607116
53	0xbc13a98c	-0.009012591
54	0x3e771b56	0.24131522
55	0x3e1dc015	0.15405305
56	0x3c810ef7	0.015754206
57	0xbee63ee8	-0.4496987
58	0xbd466a70	-0.04844135
59	0xbe0cc6df	-0.13747738
60	0x3e47dea1	0.1951852
61	0xbe6ebdcd	-0.23314591
62	0x3db2b1e8	0.08725339
63	0xbe01121d	-0.12604566
64	0x3db875f0	0.0900687
65	0x3e541844	0.20712382
66	0x3d9d47af	0.07679688
67	0x3ea948bf	0.33063313
68	0xbe3155a3	-0.17317824
69	0xbd8cf06f	-0.068817966
70	0x3eb87702	0.36028296
71	0x3d4fbf22	0.050719388
72	0xbdf87e56	-0.12133472
73	0xbd885790	-0.06657326
74	0x3de29639	0.11063809
75	0x3d7263d8	0.05917725
76	0xbdd0828b	-0.10181149
77	0xbec18457	-0.3779628
78	0x3df539c2	0.11973907
79	0x3e701bef	0.23448156
80	0xbc5c296a	-0.013437608
81	0x3badd017	0.0053043473
82	0xbe20ad27	-0.15691052
83	0xbb40029e	-0.0029298435
84	0xbdad3b0b	-0.08458527
85	0x3e06af3a	0.13152781
86	0x3d274101	0.040833477
87	0x3e0e482f	0.13894723
88	0x3e322061	0.17395164
89	0x3e2a06e8	0.16604197
90	0xbd71e05b	-0.059051853
91	0xbe95670a	-0.29180175
92	0xbd5f3c17	-0.054500666
93	0xbe3e62bb	-0.1859235
94	0xbda72f96	-0.08163373
95	0x3c847a63	0.01617164
96	0x3e8c1811	0.2736211
97	0xbca6b97a	-0.020352114
98	0x3de637b6	0.11241095
99	0x3e9958d6	0.2995059
100	0x3d35dfd0	0.044402897
101	0xbd434cdf	-0.047680732
102	0xbe5d718e	-0.21625349
103	0x3d2aaf8d	0.041671325
104	0xbe08e898	-0.13369977
105	0x3dd713a5	0.10501794
106	0x3da74a70	0.08168495
107	0xbe398739	-0.1811799
108	0xbe43fa78	-0.19138515
109	0xbee984c3	-0.45609102
110	0xbd28192c	-0.04103963
111	0x3e898547	0.26859495
112	0xbe089078	-0.1333636
113	0xbe5c6946	-0.21524534
114	0xbe578610	-0.21047235
115	0x3ea80eb4	0.32823718
116	0x3e9b7257	0.30360672
117	0x3de6eac3	0.11275246
118	0xbc6bd413	-0.014393824
119	0x3e5ebb4b	0.21751134
120	0x3df5e2c7	0.12006145
121	0x3df0e8a4	0.11763123
122	0xbe01b0d6	-0.12665114
123	0xbdb54295	-0.0885059
124	0xbca12421	-0.019670548
125	0xbddf65a2	-0.10908057
126	0x3ea546d4	0.322806
127	0xbe2f4e32	-0.17119673
128	0xbcc062cd	-0.023484612
129	0x3e470040	0.19433689
130	0xbd0377a8	-0.032096535
131	0x3e9ab16c	0.30213487
132	0xbe429875	-0.1900347
133	0xbe7c6e2c	-0.24651402
134	0xbe34ba95	-0.176493
135	0x3ef3768e	0.47551388
136	0xbe02306e	-0.12713787
137	0xbd93fae3	-0.07225587
138	0xbe1040bc	-0.14087194
139	0xbcc3d155	-0.023903528
140	0xbe1d8007	-0.1538087
141	0x3e256ad9	0.1615404
142	0x3d511c89	0.051052604
143	0x3e2aa79c	0.166655
144	0x3d9785af	0.07398545
145	0x3e5db3ea	0.21650663
146	0xbdb62b7b	-0.08895012
147	0x3e6da786	0.23208436
148	0xbe0e8c94	-0.13920814
149	0xbe0aac64	-0.13542324
150	0xbc4c95a8	-0.012486853
151	0x3d04ac9d	0.03239118
152	0x3de81881	0.11332799
153	0xbeb1b4b7	-0.34708187
154	0xbd81ff75	-0.06347553
155	0x3e3ba1a4	0.1832338
156	0xbe11be37	-0.14232717
157	0xbb057457	-0.0020363533
158	0x3eb43e9c	0.35204017
159	0x3c8c7356	0.01714484
160	0xbe4fab71	-0.20280243
161	0x3ea71f23	0.32640943
162	0xbe3c5fe3	-0.18395953
163	0xbd61b52b	-0.055104416
164	0xbe387c02	-0.18016055
165	0xbe811927	-0.25214502
166	0xbda7eb0e	-0.0819913
167	0x3e916804	0.2839967
168	0x3e07a9e2	0.13248399
169	0xbe8a58db	-0.27020916
170	0xbeac4c89	-0.33652142
171	0xbdf69b67	-0.120413594
172	0x3e32ce1f	0.17461441
173	0x3cea1006	0.028572094
174	0x3d819746	0.06327681
175	0xbd03ef4a	-0.032210626
176	0x3ec865e6	0.39140242
177	0xbe964437	-0.2934892
178	0xbe43d701	-0.19124986
179	0xbd5c3cb2	-0.05376882
180	0xbe02dec7	-0.12780295
181	0xbec824c3	-0.39090547
182	0xbd537d92	-0.051633425
183	0x3d8617b3	0.06547489
184	0x3ed44d24	0.41465104
185	0x3d3c0c98	0.045910448
186	0x3d9be51a	0.07612057
187	0xbd911b80	-0.07085323
188	0x3e0ef999	0.13962401
189	0xbcbebd82	-0.023283724
190	0x3e4ece6a	0.20195928
191	0xbbdced83	-0.006742181
192	0x3e0b877c	0.13625902
193	0x3dbdfecc	0.09277114
194	0x3d418d8a	0.047254123
195	0x3e5e2eb7	0.21697508
196	0xbde2baf3	-0.11070814
197	0x3de48bb4	0.11159459
198	0xbcf138e7	-0.029446078
199	0xbda41944	-0.080126315
200	0x3d872fce	0.06600915
201	0xbda4fde5	-0.08056239
202	0xbccfc034	-0.025360204
203	0xbe33a4f4	-0.17543393
204	0xbe359363	-0.17732005
205	0xbe47ae34	-0.19500047
206	0x3d972cc6	0.07381587
207	0xbc8d6f3a	-0.017264951
208	0xbd135164	-0.035966292
209	0xbd1d77ea	-0.038444437
210	0xbe1b96f5	-0.15194304
211	0xbe0bfb98	-0.13670194
212	0x3e54df67	0.20788346
213	0x3d9b853b	0.07593771
214	0xbd1e38c5	-0.03862836
215	0xbd836802	-0.06416322
216	0x3d2bf336	0.04197999
217	0xbe007fff	-0.12548827
218	0x3df34df9	0.118801065
219	0xbd67463b	-0.05646346
220	0xbe657346	-0.22407255
221	0xbe5aba0e	-0.21360037
222	0x3d38968e	0.045065455
223	0xbe30ed9d	-0.17278142
224	0x3e4e843d	0.20167632
225	0x3e3cb3f7	0.18428026
226	0x3e9292f7	0.2862775
227	0x3e1465a5	0.144919
228	0x3e7bcb0a	0.24589172
229	0xbd35ff2d	-0.044432808
230	0xbbf3bd58	-0.007438343
231	0x3e647a1f	0.2231221
232	0x3e04f596	0.12984309
233	0xbd645653	-0.055746388
234	0x3e24c3d1	0.16090323
235	0xbc1224e7	-0.008919931
236	0xbd51c967	-0.051217463
237	0xbc93fd90	-0.018065244
238	0xbcc82b77	-0.024434788
239	0xbe76d067	-0.24102937
240	0xbe2057ac	-0.15658444
241	0xbda84860	-0.082169294
242	0xbcd0553e	-0.025431272
243	0xbdf03b2b	-0.117300354
244	0x3c48d7f2	0.012258517
245	0x3cbd2f34	0.023093797
246	0x3c1ee06c	0.009697061
247	0x3ec130c8	0.3773253
248	0x3e19d393	0.15022115
249	0x3b7777e5	0.0037760672
250	0x3d050f9b	0.032485586
251	0xbe8a4d3e	-0.27012056
252	0xbe22717c	-0.15863603
253	0xbe2da71b	-0.16958277
254	0x3e37971c	0.17928737
255	0x3a452c4d	0.0007521555

rnn.weight_hh_l0 f4 [96, 32]
0	0x3d7ad718	0.061240286
1	0x3d59f5e2	0.053213008
2	0xbc4098f5	-0.011755218
3	0x3ce82a47	0.028340472
4	0xbe6a079d	-0.22854467
5	0x3e65518e	0.22394392
6	0x3cc17bc9	0.023618596
7	0xbd1c0c5b	-0.03809772
8	0xbeb2bf23	-0.3491145
9	0xbc379bdd	-0.011206594
10	0xbe17b6d4	-0.14815837
11	0xbe499913	-0.196873
12	0x3f01906c	0.50610995
13	0x3e0cccbb	0.13749973
14	0x3e2795bf	0.16365717
15	0xbe540926	-0.20706615
16	0xbe787d6c	-0.24266595
17	0xbd857163	-0.065157674
18	0xbe23e084	-0.16003615
19	0xbe570daf	-0.21001314
20	0x3cc37e50	0.023863941
21	0xbeedbb33	-0.46431884
22	0x3e6a99ea	0.22910276
23	0x3d6995e5	0.057027716
24	0x3d581cee	0.052761964
25	0x3e131b18	0.14365804
26	0x3ec52a55	0.3850886
27	0x3d89e710	0.06733525
28	0x3e7329ff	0.23746489
29	0xbd172d3f	-0.036908384
30	0x3dd18858	0.10231084
31	0x3d68d1c5	0.056840677
32	0x3ebf2397	0.3733184
33	0x3eecbed9	0.46239355
34	0xbda1fbca	-0.07909353
35	0xbe81c0d3	-0.25342426
36	0x3dccdaeb	0.10002693
37	0xbe4075ce	-0.18794939
38	0x3d85d017	0.065338306
39	0xbd3e6bf7	-0.046489682
40	0xbc686950	-0.014185265
41	0x3dc79d93	0.09746852
42	0xbd2402cc	-0.04004173
43	0x3ebe89a0	0.37214375
44	0x3eba3a13	0.36372432
45	0xbe892e91	-0.2679334
46	0x3e917f46	0.28417414
47	0xbe49ec46	-0.19719037
48	0xbac99c25	-0.0015381618
49	0x3dca363a	0.09873624
50	0xbcc2fabe	-0.023801204
51	0x3e9d9b6e	0.30782646
52	0x3e132ae7	0.14371835
53	0xbea865bb	-0.32890114
54	0x3b04d7de	0.0020270268
55	0x3d8a85b5	0.06763784
56	0xbd41fc4e	-0.047359757
57	0x3daad3f6	0.083412096
58	0xbe36cc50	-0.17851377
59	0x3dbc87f6	0.0920562
60	0x3deebc0a	0.11656959
61	0x3d39e0e3	0.045380484
62	0x3da1ff89	0.079100676
63	0x3debac6d	0.11507497
64	0xbe53d4c4	-0.20686632
65	0x3f0689b6	0.5255388
66	0xbe3edf64	-0.18639904
67	0xbe71c967	-0.23611985
68	0x3ef36af8	0.47542548
69	0xbe1776bd	-0.14791389
70	0xbd0f09c5	-0.034921426
71	0x3e1ef265	0.15522154
72	0x3cdfcf49	0.027320521
73	0xbddd4860	-0.1080482
74	0x3de981a4	0.1140168
75	0x3e3f48bd	0.18680091
76	0xbdf4dd4d	-0.11956272
77	0x3db57a52	0.088612214
78	0x3d09bedc	0.033629283
79	0xbe07f2de	-0.1327624
80	0xbd730584	-0.059331432
81	0xbd13840e	-0.03601461
82	0xbdb505ba	-0.08838983
83	0x3e7f00cd	0.24902649
84	0x3e8ec31c	0.27883232
85	0xbe1ef5ea	-0.15523496
86	0x3f091554	0.5354817
87	0x3e5b6c50	0.21428037
88	0x3d03c496	0.0321699
89	0x3e585e0e	0.21129629
90	0x3e70101d	0.23443647
91	0x3d9625fc	0.07331464
92	0x3e9eeb71	0.31039003
93	0x3e1245a0	0.14284372
94	0x3e5415e8	0.20711482
95	0x3da7d80d	0.08195505
96	0x3b89cd75	0.0042054006
97	0x3d15c42b	0.036564033
98	0x3e93c698	0.28862453
99	0xbe590acc	-0.21195525
100	0x3e1a0fed	0.15045138
101	0xbeacc165	-0.33741298
102	0xbcc8ab44	-0.024495728
103	0x3d7ea1c8	0.062166005
104	0x3d8b7821	0.06810022
105	0xbe2c892b	-0.168492
106	0x3e6a101a	0.22857705
107	0xbed08b49	-0.40731266
108	0x3ecfb150	0.40564966
109	0x3ece5dc9	0.40305927
110	0x3e7cc073	0.24682789
111	0x3e18f060	0.14935446
112	0x3cf5e43f	0.030016063
113	0xbd292eab	-0.04130427
114	0x3d2e063b	0.04248641
115	0x3c9f7970	0.019467086
116	0x3dd41635	0.10355798
117	0x3db5909e	0.08865474
118	0xbdd046af	-0.10169732
119	0x3e1d6786	0.15371522
120	0x3ddde5a2	0.108348146
121	0x3e8703fd	0.2637023
122	0x3e89cea5	0.2691547
123	0x3c90ba7f	0.017667053
124	0x3e736978	0.23770702
125	0x3e16173a	0.14657298
126	0x3d314075	0.04327436
127	0xbe444e70	-0.19170547
128	0x3d0a6f4b	0.033797543
129	0x3e718865	0.23587187
130	0x3e2d485b	0.16922133
131	0xbe1e544f	-0.15461849
132	0x3ed2f447	0.41201994
133	0x3ca9b3da	0.020715643
134	0xbdcf4fa4	-0.10122612
135	0xbd812138	-0.06305164
136	0xbd167209	-0.036729846
137	0x3de6ecf8	0.11275667
138	0x3d668628	0.056280285
139	0x3db5f351	0.088842995
140	0xbe8304e2	-0.25589663
141	0xbec3bb82	-0.38228995
142	0x3c24889a	0.010042334
143	0xbc6fadbf	-0.014628827
144	0xbdad18a7	-0.08451968
145	0xbe885f0c	-0.26635015
146	0xbc35987c	-0.011083718
147	0x3e12e6fe	0.14345929
148	0xbcfa6440	-0.030565381
149	0xbeb1684c	-0.34649885
150	0x3c9616df	0.018321453
151	0x3e8d5863	0.27606496
152	0x3d202bec	0.039104387
153	0xbdae2f3c	-0.08505103
154	0x3e3e3d34	0.18578035
155	0xbde31e23	-0.110897325
156	0x3e6a87b5	0.2290333
157	0x3e246405	0.1605378
158	0x3db0742d	0.08615909
159	0xbbacb2dc	-0.005270345
160	0xbe35e3d5	-0.17762692
161	0xbee0099c	-0.4375733
162	0xbe1111ea	-0.1416699
163	0x3e360350	0.17774701
164	0x3e42d32e	0.19025871
165	0xbecbf079	-0.39831904
166	0x3e2c90db	0.16852133
167	0xbe1b3ca7	-0.15159856
168	0x3dee1315	0.11624733
169	0x3c70e41e	0.014702825
170	0x3d4cdfec	0.050018236
171	0xbead46b5	-0.33843008
172	0xbc9cab36	-0.019124608
173	0x3efc8d27	0.4932644
174	0xbe60e676	-0.21962914
175	0x3df0fc9d	0.11766932
176	0x3dabc1f8	0.08386606
177	0x3ce9a1dc	0.028519563
178	0xbd041c54	-0.03225358
179	0xbec67aa7	-0.3876545
180	0x3e0e2531	0.13881375
181	0x3f0d298f	0.5514154
182	0x3de360f5	0.111024775
183	0x3e4e5b1f	0.20151947
184	0xbe3187d2	-0.17336968
185	0xbe4dfc82	-0.20115855
186	0x3eac625c	0.33668792
187	0xbdb144b9	-0.08655686
188	0xbc369a9b	-0.011145259
189	0x3e2cc40a	0.16871658
190	0xbe62bd1c	-0.22142452
191	0x3e8c7398	0.2743194
192	0xbcb8fe16	-0.022582095
193	0x3e58c367	0.2116829
194	0x3e0b8573	0.13625126
195	0xbdc10ea1	-0.09426618
196	0x3e0d27bf	0.13784693
197	0x3cfaf46a	0.030634124
198	0xbd8d78cf	-0.06907808
199	0x3db76160	0.0895412
200	0x3e85e9b7	0.26154873
201	0x3e55a56a	0.20863882
202	0x3e882e2a	0.2659772
203	0xbe994c06	-0.29940814
204	0x3d90234b	0.070379816
205	0x3b69b6a7	0.0035661848
206	0x3e02f677	0.12789331
207	0xbe8018dd	-0.2501897
208	0xbdb76659	-0.08955068
209	0xbdecf41c	-0.11569998
210	0xbe38f044	-0.18060404
211	0x3d9dd17f	0.07705974
212	0xbd0df4bf	-0.034657236
213	0xbe729946	-0.23691282
214	0xbdbc372b	-0.0919021
215	0x3e4a52cb	0.19758146
216	0x3e3c9a2f	0.18418191
217	0x3dd4a45d	0.10382912
218	0x3e52b509	0.20576872
219	0xbe235c12	-0.15953091
220	0x3e9e48d9	0.30914953
221	0x3da2ea59	0.079548545
222	0x3e0936cf	0.13399814
223	0xbdac27d6	-0.084060356
224	0xbe735846	-0.23764142
225	0x3d81b0cd	0.0633255
226	0x3df24fbc	0.118316144
227	0x3c39ffff	0.011352538
228	0x3db513a9	0.088416405
229	0xbe854450	-0.2602868
230	0xbe7c4c14	-0.24638397
231	0x3e549731	0.207608
232	0x3cc5262b	0.024066051
233	0xbd2b4f52	-0.041823693
234	0x3e004d75	0.12529548
235	0x3cdcf766	0.026973438
236	0xbbcde57e	-0.006283461
237	0x3c9a0e32	0.018805597
238	0x3d1af5a0	0.037831903
239	0xbee86862	-0.45392138
240	0xbda4884b	-0.08033808
241	0xbeb9c4fc	-0.362831
242	0xbe2a2708	-0.16616452
243	0x3e0f6419	0.14003028
244	0xbd898cc8	-0.06716305
245	0xbe79e4e9	-0.24403729
246	0x3bc720c2	0.006076903
247	0xbd1fe300	-0.039034843
248	0x3da1c886	0.07899575
249	0x3ce2c7ed	0.027683223
250	0x3d0c3a55	0.034235317
251	0xbda67552	-0.08127846
252	0x3dfc5c14	0.1232225
253	0x3e634348	0.22193635
254	0x3db9fbc4	0.090812236
255	0xbc75368b	-0.014966617

rnn.bias_ih_l0 f4 [96]
0	0x3e7f6735	0.24941714
1	0xbd649f6e	-0.055816106
2	0x3d618ea3	0.05506767
3	0x3d5d19c4	0.05397965
4	0xbdd4e48c	-0.10395154
5	0xbe004b10	-0.12528634
6	0x3e6b0bb4	0.22953683
7	0x3e5ba568	0.21449816
8	0xbd696ade	-0.056986682
9	0x3cee6f8e	0.029105928
10	0xbdd5572d	-0.10417018
11	0xbd026578	-0.03183505
12	0x3d50009b	0.050781827
13	0xbdb95477	-0.090493135
14	0x3d412bca	0.0471609
15	0x3d0f690b	0.035012286
16	0x3dda2874	0.10652247
17	0x3e3d545c	0.18489212
18	0x3e48cf52	0.19610336
19	0x3dcb8ca9	0.09938938
20	0x3e2186ab	0.15774028
21	0x3e71531b	0.23566858
22	0x3da2ca7c	0.07948777
23	0xbcb9ca71	-0.02267954
24	0x3e5a1c35	0.21299823
25	0x3e50e03f	0.20398043
26	0x3e03af33	0.12859802
27	0x3e9995d1	0.29997113
28	0x3e1a0627	0.1504141
29	0x3e9a2183	0.30103692
30	0x3d28708d	0.04112296
31	0x3e2c07c2	0.16799834
32	0xbe83ed14	-0.25766814
33	0xbe1253da	-0.142898
34	0xbed56382	-0.4167748
35	0xbe015149	-0.12628664
36	0x3d7aca17	0.061227884
37	0xbe179c62	-0.14805749
38	0xbe9e234e	-0.3088631
39	0xbde0b96b	-0.10972866
40	0xbe8fd0be	-0.28088945
41	0xbee187d8	-0.44048953
42	0xbe789d94	-0.24278861
43	0xbdc9ca62	-0.098530546
44	0xbecb047b	-0.39651856
45	0xbec0ec13	-0.3768011
46	0xbd6d3e5f	-0.05792081
47	0xbec792c9	-0.38979176
48	0xbe4e853a	-0.2016801
49	0xbd870055	-0.0659186
50	0xbdbe204c	-0.09283504
51	0xbdbf5539	-0.09342427
52	0xbeb689c3	-0.3565198
53	0xbe75f9d3	-0.24021082
54	0x3d22ff4e	0.03979426
55	0xbe40b8b0	-0.18820453
56	0xbcf713e9	-0.030160861
57	0x3cb046ce	0.021518137
58	0xbd3b7549	-0.04576615
59	0xbdc60dc0	-0.09670591
60	0x3d130a98	0.035898775
61	0xbe7317c4	-0.23739535
62	0xbe356b1b	-0.17716639
63	0xbe3ad4a6	-0.18245181
64	0x3d6b21ab	0.057405155
65	0x3e1fe127	0.15613233
66	0x3dfd48f0	0.12367427
67	0xbe42ab4b	-0.19010656
68	0x3e8277ba	0.2548197
69	0x3e6b220f	0.22962211
70	0xbda24063	-0.07922437
71	0x3e55c2d5	0.20875104
72	0xbd5d692d	-0.05405538
73	0x3e5b2d79	0.21404065
74	0xbe443b1f	-0.19163178
75	0x3e6fce15	0.23418458
76	0xbda71266	-0.08157806
77	0xbccef637	-0.025263889
78	0x3e08b913	0.1335185
79	0xbe35fe44	-0.17772776
80	0xbd1d5823	-0.03841413
81	0xbde2711b	-0.110567294
82	0xbba22d6d	-0.004949263
83	0xbc0dd6f3	-0.008657205
84	0xbde7fa00	-0.113269806
85	0xbe0382ad	-0.12842818
86	0x3dc64d74	0.09682742
87	0xbd94f458	-0.07273167
88	0xbb0e702a	-0.0021734335
89	0x3dc50439	0.09619946
90	0xbda66241	-0.08124209
91	0xbc71752b	-0.014737408
92	0x3e81eb08	0.25374627
93	0x3dfceb96	0.12349622
94	0x3e271139	0.16315164
95	0xbdac408e	-0.0841075

rnn.bias_hh_l0 f4 [96]
0	0x3e0be946	0.13663206
1	0x3e0677fd	0.1313171
2	0x3e4c7c13	0.19969206
3	0xbc9ba65a	-0.019000221
4	0x3dc8b1de	0.097995505
5	0x3dee5d55	0.116388954
6	0x3df73c54	0.120720536
7	0x3dd0b010	0.10189831
8	0xbc434c36	-0.011920026
9	0x3e91dcb0	0.28488684
10	0xbe0109a1	-0.1260133
11	0xbe093638	-0.13399589
12	0xbdc3495b	-0.09535476
13	0xbe252914	-0.16128951
14	0xbd790acd	-0.060801316
15	0x3dc34bc6	0.09535937
16	0xbcda9e64	-0.026686855
17	0xbcde955d	-0.027170831
18	0x3e092054	0.13391238
19	0x3c80eacc	0.01573696
20	0x3e494f8d	0.19659252
21	0x3d336685	0.043798942
22	0xbd7a7bac	-0.0611531
23	0x3e433fc3	0.19067292
24	0x3c536e42	0.0129047055
25	0xbd5eb649	-0.05437306
26	0xbdbbbe83	-0.091671966
27	0x3ddb6d1e	0.10714172
28	0x3dbe8ba0	0.09303975
29	0x3dc62f10	0.09676945
30	0xbb2c4fa7	-0.0026292594
31	0x3d9b4171	0.07580841
32	0xbecd4ca7	-0.40097544
33	0xbe275f62	-0.1634498
34	0xbedc8cfc	-0.43076313
35	0xbebea2c4	-0.37233555
36	0xbe3f4128	-0.18677199
37	0xbd67afaa	-0.05656401
38	0xbe8d2f8b	-0.27575335
39	0x3d5525cc	0.052038
40	0xbe7d71a9	-0.24750389
41	0xbefe3ec8	-0.49657273
42	0xbe401f7a	-0.18762007
43	0xbeb6e049	-0.3571799
44	0xbee22c3b	-0.4417437
45	0xbec79faf	-0.38989016
46	0x3cf373e5	0.029718349
47	0xbe876629	-0.2644513
48	0xbe994fd7	-0.29943725
49	0xbea50c42	-0.32235914
50	0xbe15b04c	-0.14618033
51	0xbd3abdf2	-0.045591302
52	0xbe3e3676	-0.18575463
53	0xbeb9841f	-0.36233613
54	0xbddae653	-0.10688462
55	0x3d9ac587	0.075572066
56	0xbd6ab126	-0.05729785
57	0xbe818d3a	-0.2530306
58	0xbd1e2a75	-0.03861471
59	0xbecb19fc	-0.39668262
60	0xbe577fe8	-0.21044886
61	0xbdbfb87c	-0.093613595
62	0xbe45afaa	-0.19305292
63	0xbe3e72dc	-0.18598503
64	0xbe15ab76	-0.14616188
65	0x3ea80d7e	0.32822794
66	0x3e8790d6	0.2647769
67	0xbe953010	-0.2913823
68	0x3e0a64fa	0.13515082
69	0xbda2811c	-0.07934782
70	0xbdbc2ffb	-0.09188839
71	0x3e21a944	0.15787226
72	0x3d949c5b	0.07256385
73	0xbdbc5f85	-0.091979064
74	0x3e4ca0ef	0.19983266
75	0x3dd7304c	0.10507259
76	0x3e5b306c	0.2140519
77	0x3e30d710	0.1726954
78	0xbd90bf15	-0.07067696
79	0xbe5ec34d	-0.21754189
80	0xbe9261be	-0.28590196
81	0x3db7eeca	0.08981092
82	0xbdf5c861	-0.1200111
83	0x3e58f610	0.21187615
84	0xbe003eb6	-0.12523922
85	0xbe47a42f	-0.19496225
86	0x3deba783	0.1150656
87	0x3e207b91	0.15672137
88	0x3e4adb45	0.19810207
89	0x3d3a042b	0.04541413
90	0x3e66758b	0.22505777
91	0xbe0a964f	-0.135339
92	0x3e86fbc1	0.26363948
93	0x3e8e9fa1	0.27856162
94	0x3e553c4a	0.2082378
95	0x3d13034e	0.035891823

fc.weight f4 [88, 32]
0	0x3e411e6a	0.18859258
1	0xbe8c6938	-0.27424026
2	0xbeb0a276	-0.34498948
3	0x3e288af8	0.16459262
4	0xbe96ee40	-0.29478645
5	0x3e6feb2c	0.23429555
6	0x3e775611	0.24153925
7	0xbed37e63	-0.41307363
8	0xbe5f4c6a	-0.21806493
9	0xbeb12a67	-0.34602663
10	0xbea9aee6	-0.3314125
11	0x3c76e3cb	0.0150689585
12	0xbe7ef1e7	-0.24896966
13	0xbe5a4d4e	-0.21318552
14	0xbe45fdc1	-0.1933508
15	0x3eb82489	0.35965374
16	0x3e6c163d	0.23055358
17	0x3dcb225e	0.099186644
18	0x3e7a7fb5	0.24462779
19	0xbdac3e81	-0.08410359
20	0x3e5785e5	0.2104717
21	0x3c24a432	0.010048913
22	0xbeab8780	-0.33501816
23	0xbe993400	-0.29922485
24	0xbe62cba6	-0.22147998
25	0xbe3f661e	-0.18691298
26	0xbe0fab77	-0.14030252
27	0x3eded2ae	0.4352011
28	0xbedd1c75	-0.43185773
29	0xbebc7226	-0.36805838
30	0xbe3cf22f	-0.1845176
31	0x3e16330b	0.14667909
32	0x3e3f532a	0.18684068
33	0xbe3677ad	-0.1781909
34	0xbeb96549	-0.36210087
35	0x3e57e5dc	0.21083778
36	0xbed11bb6	-0.40841454
37	0x3e37465b	0.17897932
38	0x3ec50558	0.3848064
39	0xbedb48be	-0.42828935
40	0xbe471183	-0.19440274
41	0xbea03573	-0.3129078
42	0xbec20146	-0.37891597
43	0x3e150003	0.14550786
44	0xbe010208	-0.12598431
45	0xbddb9269	-0.10721285
46	0xbe233d7c	-0.15941423
47	0x3e773fea	0.24145475
48	0x3e36a661	0.17836906
49	0x3d730a03	0.05933572
50	0x3e8b7c41	0.27243236
51	0xbea4b001	-0.3216553
52	0x3ea944d3	0.3306032
53	0x3dbbe5ac	0.09174666
54	0xbe72f513	-0.23726301
55	0xbec71fb8	-0.38891387
56	0xbe1cd400	-0.15315247
57	0xbec0968c	-0.37614858
58	0xbe934f06	-0.28771228
59	0x3ef1d5f6	0.47233552
60	0xbea9b694	-0.3314711
61	0xbefebb5a	-0.49752313
62	0xbe449ff1	-0.19201638
63	0x3e4b2352	0.19837692
64	0x3e520569	0.20509876
65	0xbe88c3c5	-0.2671186
66	0xbec54950	-0.38532495
67	0x3e63eff0	0.22259498
68	0xbec36a15	-0.38166872
69	0x3e6d3f0f	0.23168586
70	0x3f0c98d8	0.5492072
71	0xbf008c70	-0.5021429
72	0xbdf23cc7	-0.118279986
73	0xbe61a998	-0.22037351
74	0xbeac69c3	-0.3367444
75	0x3e09292e	0.13394615
76	0xbe7d4e84	-0.24736983
77	0xbe0e5c31	-0.13902356
78	0xbe1a04da	-0.15040913
79	0x3e9c98ef	0.3058543
80	0x3e82fbb4	0.2558266
81	0x3de6a682	0.112622276
82	0x3e4cf422	0.20015004
83	0xbe25dc39	-0.1619729
84	0x3e73a308	0.2379266
85	0x3d4f1637	0.050558295
86	0xbe45baa2	-0.19309476
87	0xbed4a958	-0.4153545
88	0xbe82909f	-0.25500962
89	0xbed4cb2a	-0.41561252
90	0xbeb597de	-0.35467428
91	0x3ea83359	0.32851675
92	0xbe4f1a97	-0.20224987
93	0xbe85f4d0	-0.2616334
94	0xbeb0aa6a	-0.34505016
95	0x3e85cfbe	0.26135057
96	0xbeabf06f	-0.33581874
97	0x3e55bf50	0.20873761
98	0x3e338161	0.17529823
99	0xbe5c7e73	-0.21532612
100	0xbf07b85c	-0.53015685
101	0x3e70e168	0.23523486
102	0xbe332a88	-0.17496693
103	0x3e3bbcfa	0.18333808
104	0x3e7d9be2	0.24766496
105	0x3e4d7828	0.20065367
106	0x3cd09328	0.025460795
107	0xbe51199b	-0.20419924
108	0x3ebc4b4d	0.367762
109	0xbe4a6d2a	-0.19768205
110	0x3e8f34af	0.27969882
111	0xbe52d726	-0.20589885
112	0xbe766e9d	-0.24065633
113	0x3ec6d238	0.3883226
114	0xbe8df7b6	-0.2772805
115	0x3e6d68ca	0.23184505
116	0xbe741bd0	-0.23838735
117	0xbe87e486	-0.26541537
118	0xbed05462	-0.4068938
119	0xbf02afcd	-0.510495
120	0x3e58294e	0.21109506
121	0x3e83b18a	0.2572139
122	0xbeb18f28	-0.34679532
123	0xbe502c03	-0.20329289
124	0x3e639f13	0.22228651
125	0x3e4833df	0.19551037
126	0x3e55a745	0.2086459
127	0xbe5fcf99	-0.21856536
128	0xbe047557	-0.12935387
129	0x3d9e9e1c	0.07745001
130	0xbec1e3f8	-0.3786924
131	0x3ea50e85	0.3223764
132	0x3df27019	0.11837787
133	0xbe4a09f8	-0.19730365
134	0x3ca8bd6a	0.020598132
135	0xbe328233	-0.1743248
136	0xbeaa81b1	-0.33302072
137	0xbeae07f9	-0.33990458
138	0x3d966e29	0.0734523
139	0x3e8976a1	0.2684832
140	0x3e43fb0c	0.19138736
141	0x3e132a12	0.14371517
142	0xbe76ff4c	-0.24120826
143	0x3eb777a7	0.35833475
144	0x3eb8ff17	0.36132118
145	0x3e9d1511	0.30680135
146	0x3d87afd5	0.06625334
147	0x3d111cc1	0.035427812
148	0x3ea54450	0.3227868
149	0x3e9ca4e9	0.30594566
150	0x3e23dbb1	0.16001774
151	0x3dea2792	0.11433329
152	0xbeb8dad3	-0.3610445
153	0xbd566d2f	-0.05235022
154	0x3d75458e	0.059880786
155	0x3ece7d84	0.40330136
156	0xbd6b7240	-0.057482004
157	0x3c7187d0	0.014741853
158	0xbebc847f	-0.36819836
159	0x3e9dac30	0.3079543
160	0x3eac7ae7	0.33687517
161	0x3e88c126	0.2670986
162	0x3e4ff107	0.20306788
163	0xbe5c7bc7	-0.21531592
164	0x3e41680d	0.18887348
165	0x3ef830a2	0.48474604
166	0xbde3a368	-0.11115152
167	0x3e1d0366	0.15333328
168	0x3e3be7f3	0.183502
169	0x3e4237ec	0.18966645
170	0xbeacf97f	-0.337841
171	0x3e526040	0.20544529
172	0x3d0964c6	0.03354337
173	0xbe83b82e	-0.25726455
174	0x3c18f0f8	0.009334795
175	0xbe572277	-0.21009241
176	0xbe5aa50f	-0.21352027
177	0xbe202ee0	-0.15642881
178	0xbe28b686	-0.16475877
179	0x3e7c2ec4	0.24627215
180	0xbe683db4	-0.22679788
181	0xbea57b04	-0.32320416
182	0x3dc0e795	0.09419171
183	0x3e5392e8	0.20661509
184	0x3e453976	0.19260201
185	0x3e56b55d	0.20967622
186	0x3e1c07f5	0.1523741
187	0xbe3d244a	-0.18470874
188	0x3e4b8249	0.19873919
189	0x3e2de995	0.16983636
190	0x3e5ff85f	0.2187209
191	0xbd80a299	-0.06281013
192	0xbd5bbfcb	-0.053649705
193	0xbcd38dbf	-0.025824426
194	0x3e37425b	0.17896406
195	0xbe3cef55	-0.18450673
196	0x3e61a2b4	0.22034723
197	0xbe81e9bd	-0.2537364
198	0xbe0d3936	-0.13791355
199	0x3df874c0	0.12131643
200	0x3d7362ee	0.05942052
201	0x3d8cd2e7	0.06876164
202	0x3e8df0df	0.27722833
203	0xbe4e2053	-0.20129518
204	0x3e20b3ef	0.15693639
205	0xbe29f1d5	-0.16596158
206	0x3e45e667	0.19326173
207	0xbe332732	-0.1749542
208	0xbe3ce542	-0.1844683
209	0xbe886d41	-0.26645854
210	0xbe553ce0	-0.20824003
211	0x3d4613ba	0.048358656
212	0xbe4d5d96	-0.20055231
213	0xbe287a4c	-0.16452903
214	0xbd0c0064	-0.03418006
215	0x3e69fc42	0.22850135
216	0x3e406fbd	0.18792625
217	0x3defa7f5	0.11701957
218	0xbdfb6dbc	-0.122767895
219	0xbe2d9ac5	-0.16953571
220	0x3e2dbd46	0.16966733
221	0x3e06d7c2	0.13168243
222	0x3e230e7b	0.15923493
223	0xbe36a02e	-0.17834541
224	0x3eb8f653	0.3612543
225	0x3e8de327	0.27712366
226	0x3e44f443	0.19233803
227	0xbe5a950c	-0.2134592
228	0x3e84b695	0.2592055
229	0x3e8138d7	0.25238678
230	0xbe223d45	-0.15843685
231	0x3e181a04	0.14853674
232	0x3e6d23d6	0.23158202
233	0x3e6bb345	0.23017605
234	0xbeaaafb5	-0.3333718
235	0x3ea00b7f	0.3125877
236	0xbdfd1a37	-0.12358516
237	0xbe4a5dec	-0.19762391
238	0xbcc26eb5	-0.02373443
239	0xbe6c791a	-0.23093072
240	0xbe5503f5	-0.2080229
241	0x3dd58827	0.104263596
242	0xbe861299	-0.26186064
243	0x3e25f411	0.16206385
244	0xbe604d26	-0.2190443
245	0xbea960a6	-0.3308155
246	0x3e413eaa	0.1887156
247	0x3e8aa6cf	0.2708039
248	0x3e46ffc4	0.19433504
249	0x3e087113	0.13324384
250	0x3e59af0c	0.21258181
251	0xbe41e37d	-0.18934436
252	0x3e4dd8dd	0.20102258
253	0x3e00474d	0.12527199
254	0x3e602afc	0.21891397
255	0xbdae6ad3	-0.08516469

fc.bias f4 [88]
0	0xbeca3090	-0.39490175
1	0xbea47fc6	-0.32128733
2	0xbe92477f	-0.28570172
3	0x3eb73859	0.35785177
4	0xbe28d568	-0.16487658
5	0x3e3acfad	0.18243285
6	0x3d832fc0	0.06405592
7	0x3ed3e5bd	0.41386214
8	0xbc344652	-0.011003094
9	0xbd8637a8	-0.06553584
10	0xbd0987c6	-0.03357675
11	0xbbe73227	-0.007055539
12	0xbcc709d9	-0.024296688
13	0xbe912d5d	-0.28354922
14	0xbafef44a	-0.0019451466
15	0x3df43bcd	0.119254686
16	0xbdc6f719	-0.09715099
17	0x3d9ed075	0.07754604
18	0x3e8c044b	0.27347025
19	0xbe0c3079	-0.13690366
20	0xbe2fc0bb	-0.17163365
21	0xbe5bc0b4	-0.21460229
22	0xbda5c40e	-0.08094035
23	0x3e8d840c	0.27639806
24	0xbe4079a1	-0.18796398
25	0x3e5d2a59	0.21598186
26	0xbdb8bedd	-0.09020779
27	0x3ebbd075	0.36682478
28	0xbe0e37e7	-0.13888513
29	0xbb315630	-0.0027059428
30	0x3df0ca0f	0.117572896
31	0x3de6c76e	0.11268507
32	0x3de01f72	0.10943498
33	0xbe464c3a	-0.19365016
34	0xbdf225a3	-0.11823585
35	0xbe97d877	-0.29657337
36	0xbe11785f	-0.14206074
37	0xbd0eca1a	-0.034860708
38	0xbe8d26bf	-0.27568623
39	0xbe61d0f6	-0.22052369
40	0xbe7cd52d	-0.24690695
41	0xbe6c2e2e	-0.23064491
42	0xbd8a20fd	-0.06744573
43	0xbd3fcd55	-0.04682668
44	0xbdbb9bf8	-0.09160608
45	0xbea0467b	-0.31303772
46	0xbdaf7e7d	-0.085690476
47	0xbe6503cc	-0.2236473
48	0xbd26b2a4	-0.04069771
49	0xbe7b4019	-0.2453617
50	0xbe466b97	-0.1937698
51	0xbea6206d	-0.32446614
52	0xbeb56bb3	-0.3543373
53	0xbdd7ffe6	-0.10546856
54	0xbea1a100	-0.31568146
55	0xbe753448	-0.23945725
56	0xbe980476	-0.29690903
57	0xbdd15ad5	-0.10222403
58	0xbe0f5f04	-0.1400109
59	0xbeb6e695	-0.35722795
60	0xbe3e391a	-0.1857647
61	0xbe904f2e	-0.2818541
62	0xbda434a0	-0.0801785
63	0xbe4a791f	-0.19772767
64	0xbe678b6e	-0.22611782
65	0xbe821e30	-0.25413656
66	0xbe48a82d	-0.19595404
67	0xbe4343e1	-0.19068862
68	0xbd9f4b93	-0.077780865
69	0xbd9206d0	-0.07130206
70	0xbec565a2	-0.38554102
71	0xbdc09b61	-0.09404636
72	0xbe858344	-0.2607671
73	0xbe67724a	-0.22602192
74	0xbe910991	-0.2832761
75	0xbda1ea8a	-0.07906063
76	0xbe8811c8	-0.26576066
77	0xbd90862b	-0.070568405
78	0xbe977e03	-0.29588327
79	0xbecacf68	-0.39611363
80	0xbe9f166e	-0.310718
81	0xbeb200a4	-0.34766114
82	0xbe682c0e	-0.22673056
83	0xbeb6e63b	-0.35722527
84	0xbd9124d3	-0.07087102
85	0xbe203668	-0.15645754
86	0xbe75579a	-0.23959199
87	0xbe96586c	-0.29364336
